src/gallium/targets/teflon/tests/models/ssdmobilenetv2/001.tflite (tflite, 2144 bytes, 1 tensors)

FeatureExtractor/MobilenetV2/expanded_conv/depthwise/depthwise_Fold;FeatureExtractor/MobilenetV2/expanded_conv/depthwise/weights_quant/FakeQuantWithMinMaxVars u1 [1, 3, 3, 32] scale=0.15280354 zero_point=145
0	0x93	0.30560708
1	0x91	0.0
2	0x93	0.30560708
3	0x8f	-0.30560708
4	0x92	0.15280354
5	0x8b	-0.91682124
6	0xba	6.264945
7	0x8c	-0.7640177
8	0x90	-0.15280354
9	0x8f	-0.30560708
10	0x90	-0.15280354
11	0x92	0.15280354
12	0x91	0.0
13	0x92	0.15280354
14	0x65	-6.723356
15	0x8f	-0.30560708
16	0x91	0.0
17	0x92	0.15280354
18	0x91	0.0
19	0x8d	-0.61121416
20	0x69	-6.1121416
21	0x93	0.30560708
22	0xed	14.057926
23	0x91	0.0
24	0x8e	-0.45841062
25	0x8d	-0.61121416
26	0x8d	-0.61121416
27	0x93	0.30560708
28	0x99	1.2224283
29	0x93	0.30560708
30	0x91	0.0
31	0x90	-0.15280354
32	0x91	0.0
33	0x91	0.0
34	0x93	0.30560708
35	0x91	0.0
36	0x91	0.0
37	0x8e	-0.45841062
38	0x8a	-1.0696248
39	0xa0	2.2920532
40	0x91	0.0
41	0xbc	6.5705523
42	0x8f	-0.30560708
43	0x8d	-0.61121416
44	0xff	16.80839
45	0x93	0.30560708
46	0x53	-9.47382
47	0x8e	-0.45841062
48	0x90	-0.15280354
49	0xb0	4.73691
50	0x89	-1.2224283
51	0x8f	-0.30560708
52	0x48	-11.154658
53	0x88	-1.3752319
54	0xf6	15.433158
55	0x90	-0.15280354
56	0x84	-1.986446
57	0x90	-0.15280354
58	0xf6	15.433158
59	0x93	0.30560708
60	0xda	11.154658
61	0x91	0.0
62	0x94	0.45841062
63	0x91	0.0
64	0x93	0.30560708
65	0x91	0.0
66	0x92	0.15280354
67	0x8f	-0.30560708
68	0x92	0.15280354
69	0x8d	-0.61121416
70	0x90	-0.15280354
71	0x88	-1.3752319
72	0x90	-0.15280354
73	0x8f	-0.30560708
74	0x90	-0.15280354
75	0x95	0.61121416
76	0x8c	-0.7640177
77	0x91	0.0
78	0x75	-4.278499
79	0x8f	-0.30560708
80	0x91	0.0
81	0x91	0.0
82	0x92	0.15280354
83	0x91	0.0
84	0x65	-6.723356
85	0x8e	-0.45841062
86	0x5d	-7.945784
87	0x90	-0.15280354
88	0x8e	-0.45841062
89	0x8d	-0.61121416
90	0x8d	-0.61121416
91	0x93	0.30560708
92	0x95	0.61121416
93	0x93	0.30560708
94	0x91	0.0
95	0x8f	-0.30560708
96	0x90	-0.15280354
97	0x91	0.0
98	0x95	0.61121416
99	0x90	-0.15280354
100	0x92	0.15280354
101	0x91	0.0
102	0xb4	5.348124
103	0x9f	2.1392496
104	0x90	-0.15280354
105	0x90	-0.15280354
106	0x90	-0.15280354
107	0xea	13.599515
108	0x8c	-0.7640177
109	0x91	0.0
110	0x74	-4.4313025
111	0x90	-0.15280354
112	0x91	0.0
113	0x8f	-0.30560708
114	0x90	-0.15280354
115	0x9e	1.986446
116	0x8b	-0.91682124
117	0x91	0.0
118	0xf2	14.821943
119	0x92	0.15280354
120	0x8e	-0.45841062
121	0x8d	-0.61121416
122	0x8b	-0.91682124
123	0x91	0.0
124	0x95	0.61121416
125	0x91	0.0
126	0x94	0.45841062
127	0x90	-0.15280354
128	0x81	-2.4448566
129	0x96	0.7640177
130	0x83	-2.1392496
131	0xa0	2.2920532
132	0x7f	-2.7504637
133	0x91	0.0
134	0x9f	2.1392496
135	0xf7	15.585961
136	0xa3	2.7504637
137	0x70	-5.0425167
138	0xa8	3.5144815
139	0x3e	-12.6826935
140	0x50	-9.93223
141	0x99	1.2224283
142	0x70	-5.0425167
143	0xa0	2.2920532
144	0x89	-1.2224283
145	0x74	-4.4313025
146	0x97	0.91682124
147	0x9d	1.8336425
148	0x01	-22.00371
149	0x81	-2.4448566
150	0xe6	12.988301
151	0x90	-0.15280354
152	0xaa	3.8200884
153	0xb0	4.73691
154	0x73	-4.5841064
155	0x82	-2.2920532
156	0xb1	4.8897133
157	0x7e	-2.9032674
158	0x87	-1.5280354
159	0xa3	2.7504637
160	0x92	0.15280354
161	0x95	0.61121416
162	0x92	0.15280354
163	0x90	-0.15280354
164	0x92	0.15280354
165	0x91	0.0
166	0x90	-0.15280354
167	0x1c	-17.878014
168	0x8e	-0.45841062
169	0x90	-0.15280354
170	0x8f	-0.30560708
171	0x89	-1.2224283
172	0x91	0.0
173	0x85	-1.8336425
174	0xae	4.4313025
175	0x91	0.0
176	0x91	0.0
177	0x91	0.0
178	0x90	-0.15280354
179	0x8c	-0.7640177
180	0x3c	-12.988301
181	0x8a	-1.0696248
182	0x4f	-10.085033
183	0x8d	-0.61121416
184	0x8f	-0.30560708
185	0x8d	-0.61121416
186	0x8b	-0.91682124
187	0x92	0.15280354
188	0x95	0.61121416
189	0x92	0.15280354
190	0x91	0.0
191	0x90	-0.15280354
192	0x94	0.45841062
193	0x91	0.0
194	0x93	0.30560708
195	0x90	-0.15280354
196	0x93	0.30560708
197	0x91	0.0
198	0x46	-11.460265
199	0x8a	-1.0696248
200	0x90	-0.15280354
201	0x94	0.45841062
202	0x90	-0.15280354
203	0x9a	1.3752319
204	0x96	0.7640177
205	0x91	0.0
206	0x5a	-8.404195
207	0x90	-0.15280354
208	0x90	-0.15280354
209	0x93	0.30560708
210	0x91	0.0
211	0x90	-0.15280354
212	0xac	4.1256957
213	0x8f	-0.30560708
214	0xd4	10.237837
215	0x88	-1.3752319
216	0x90	-0.15280354
217	0x8e	-0.45841062
218	0x99	1.2224283
219	0x92	0.15280354
220	0x86	-1.680839
221	0x94	0.45841062
222	0x91	0.0
223	0x90	-0.15280354
224	0x92	0.15280354
225	0x91	0.0
226	0x92	0.15280354
227	0x90	-0.15280354
228	0x92	0.15280354
229	0x90	-0.15280354
230	0x8a	-1.0696248
231	0xa0	2.2920532
232	0x88	-1.3752319
233	0x89	-1.2224283
234	0x8f	-0.30560708
235	0x82	-2.2920532
236	0x62	-7.1817665
237	0x92	0.15280354
238	0x77	-3.972892
239	0x8e	-0.45841062
240	0x92	0.15280354
241	0x8e	-0.45841062
242	0x93	0.30560708
243	0x90	-0.15280354
244	0x50	-9.93223
245	0xac	4.1256957
246	0xcd	9.168213
247	0x8c	-0.7640177
248	0x91	0.0
249	0x8e	-0.45841062
250	0x50	-9.93223
251	0x94	0.45841062
252	0x25	-16.502783
253	0x92	0.15280354
254	0x92	0.15280354
255	0x8f	-0.30560708
