src/gallium/targets/teflon/tests/models/ssdmobilenetv2/023.tflite (tflite, 14416 bytes, 1 tensors)

FeatureExtractor/MobilenetV2/expanded_conv_6/project/Conv2D_Fold;FeatureExtractor/MobilenetV2/expanded_conv_6/project/weights_quant/FakeQuantWithMinMaxVars u1 [64, 1, 1, 192] scale=0.008339976 zero_point=129
00000000: 7ea1 6853 837d 719a 626e 737a 8590 be43
00000010: 7cb5 a5a9 7297 8d8d 9d86 974c 4d75 5c2d
00000020: 9eb2 638d a75b 4779 6f71 6372 817b 6f86
00000030: 888d 6097 7ac0 885a 5f83 9667 ad72 885c
00000040: ae85 8a85 7887 7f7c a786 8694 7f64 9d78
00000050: 7e6c 6a95 974b 8075 485a af78 7b9d 8f70
00000060: 89bc a665 73a4 8e8f 61a6 80ad 6c5b 9a6b
00000070: 796d 7599 958e 647b a2b6 7e49 9b80 b756
00000080: 8893 736d 8077 6576 7389 8465 94aa 6bb2
00000090: 7795 5f80 6370 3597 3586 768c 8b8e 7f5c
000000a0: a274 8066 4f79 718c 568d 7d6a ac8b 7357
000000b0: 6c32 6786 998c 6d93 7a94 709d 8278 8259
000000c0: 945b 43ab a084 7862 6b84 8a6b 787b b0d6
000000d0: be9e 7c76 7e75 6d6d a279 8054 794c a8a2
000000e0: 8d6d 9856 3465 6965 8b84 8375 5161 7f4c
000000f0: 6473 4697 7f95 7f74 7093 5dae 8767 986d
-0.025019929 0.26687923 -0.2084994 -0.3836389 0.016679952 -0.033359904 -0.13343962 0.2084994
-0.25853926 -0.15845954 -0.116759665 -0.058379833 0.033359904 0.12509964 0.5087385 -0.5170785
-0.04169988 0.43367875 0.30023915 0.33359903 -0.12509964 0.18347947 0.100079715 0.100079715
0.23351933 0.04169988 0.18347947 -0.44201872 -0.43367875 -0.100079715 -0.30857912 -0.700558
0.2418593 0.40865883 -0.2501993 0.100079715 0.3169191 -0.3169191 -0.4837186 -0.06671981
-0.15011957 -0.13343962 -0.2501993 -0.12509964 0.0 -0.050039858 -0.15011957 0.04169988
0.058379833 0.100079715 -0.2752192 0.18347947 -0.058379833 0.52541846 0.058379833 -0.32525906
-0.28355917 0.016679952 0.1751395 -0.21683937 0.36695895 -0.12509964 0.058379833 -0.30857912
0.37529892 0.033359904 0.07505979 0.033359904 -0.07505979 0.050039858 -0.016679952 -0.04169988
0.3169191 0.04169988 0.04169988 0.15845954 -0.016679952 -0.2418593 0.23351933 -0.07505979
-0.025019929 -0.1751395 -0.19181944 0.16679952 0.18347947 -0.4503587 -0.008339976 -0.100079715
-0.47537863 -0.32525906 0.3836389 -0.07505979 -0.050039858 0.23351933 0.116759665 -0.14177959
0.06671981 0.49205858 0.30857912 -0.23351933 -0.116759665 0.29189914 0.10841969 0.116759665
-0.26687923 0.30857912 -0.008339976 0.36695895 -0.1751395 -0.3169191 0.2084994 -0.18347947
-0.06671981 -0.16679952 -0.100079715 0.20015943 0.16679952 0.10841969 -0.2418593 -0.050039858
0.2752192 0.44201872 -0.025019929 -0.46703866 0.21683937 -0.008339976 0.4503587 -0.35861897
0.058379833 0.15011957 -0.116759665 -0.16679952 -0.008339976 -0.08339976 -0.23351933 -0.09173974
-0.116759665 0.06671981 0.025019929 -0.23351933 0.15845954 0.341939 -0.18347947 0.40865883
-0.08339976 0.16679952 -0.28355917 -0.008339976 -0.2501993 -0.14177959 -0.6338382 0.18347947
-0.6338382 0.04169988 -0.09173974 0.09173974 0.08339976 0.10841969 -0.016679952 -0.30857912
0.2752192 -0.10841969 -0.008339976 -0.22517934 -0.4169988 -0.06671981 -0.13343962 0.09173974
-0.35861897 0.100079715 -0.033359904 -0.19181944 0.35861897 0.08339976 -0.116759665 -0.350279
-0.1751395 -0.6588581 -0.21683937 0.04169988 0.20015943 0.09173974 -0.16679952 0.15011957
-0.058379833 0.15845954 -0.14177959 0.23351933 0.008339976 -0.07505979 0.008339976 -0.33359903
0.15845954 -0.3169191 -0.5170785 0.350279 0.25853926 0.025019929 -0.07505979 -0.25853926
-0.18347947 0.025019929 0.07505979 -0.18347947 -0.07505979 -0.050039858 0.39197886 0.70889795
0.5087385 0.2418593 -0.04169988 -0.09173974 -0.025019929 -0.100079715 -0.16679952 -0.16679952
0.2752192 -0.06671981 -0.008339976 -0.37529892 -0.06671981 -0.44201872 0.32525906 0.2752192
0.100079715 -0.16679952 0.19181944 -0.35861897 -0.6421782 -0.23351933 -0.20015943 -0.23351933
0.08339976 0.025019929 0.016679952 -0.100079715 -0.40031886 -0.26687923 -0.016679952 -0.44201872
-0.2418593 -0.116759665 -0.49205858 0.18347947 -0.016679952 0.16679952 -0.016679952 -0.10841969
-0.14177959 0.15011957 -0.30023915 0.37529892 0.050039858 -0.21683937 0.19181944 -0.16679952
