src/gallium/targets/teflon/tests/models/ssdmobilenetv2/026.tflite (tflite, 26784 bytes, 1 tensors)

FeatureExtractor/MobilenetV2/expanded_conv_7/project/Conv2D_Fold;FeatureExtractor/MobilenetV2/expanded_conv_7/project/weights_quant/FakeQuantWithMinMaxVars u1 [64, 1, 1, 384] scale=0.006753895 zero_point=127
-0.22963242 -0.047277264 0.2904175 -0.22963242 -0.23638633 -0.31743306 -0.36471033 0.08104674
-0.32418695 0.01350779 0.10806232 -0.01350779 -0.2634019 -0.384972 0.1418318 -0.35795644
0.37146422 -0.37146422 -0.10130843 -0.3917259 -0.21612464 0.033769473 -0.3917259 0.05403116
-0.12157011 -0.24989411 -0.08780064 -0.16209348 -0.01350779 0.033769473 -0.2701558 0.18910906
-0.06753895 -0.15533958 0.6618817 0.1418318 0.15533958 -0.05403116 0.02701558 0.047277264
0.01350779 0.020261684 0.04052337 0.20937075 0.033769473 0.1350779 0.22963242 0.11481621
-0.31067917 -0.17560127 0.08104674 -0.20937075 -0.15533958 -0.1350779 0.01350779 0.02701558
0.08780064 0.11481621 -0.16209348 0.4254954 0.08780064 -0.020261684 -0.15533958 -0.074292846
0.15533958 0.033769473 0.15533958 -0.2904175 0.08104674 0.05403116 -0.4187415 0.05403116
-0.34444866 0.033769473 0.14858569 -0.1350779 0.05403116 -0.10130843 -0.2634019 -0.15533958
-0.12157011 -0.17560127 0.22287853 -0.10806232 0.16884737 0.1418318 -0.24989411 -0.27690968
0.22963242 0.06753895 -0.006753895 -0.33094084 -0.16884737 0.05403116 -0.033769473 0.18910906
0.09455453 0.1350779 0.1418318 -0.2634019 -0.18235517 -0.006753895 0.060785055 -0.43900317
0.01350779 -0.30392528 -0.16209348 -0.15533958 0.35120255 -0.14858569 -0.37146422 0.074292846
0.0 -0.2701558 -0.1350779 -0.01350779 -0.14858569 -0.24314022 -0.20261686 -0.08104674
-0.2904175 0.48628044 -0.08104674 -0.18910906 0.31743306 0.10806232 -0.033769473 -0.09455453
-0.2701558 -0.23638633 -0.21612464 -0.128324 0.047277264 -0.04052337 0.09455453 -0.08104674
-0.34444866 0.08104674 -0.36471033 -0.35120255 -0.1350779 -0.27690968 -0.128324 0.047277264
-0.060785055 0.22963242 0.0 -0.01350779 -0.31067917 0.006753895 0.09455453 -0.08104674
0.16884737 -0.36471033 -0.23638633 0.02701558 -0.19586295 -0.5470655 0.01350779 -0.33769473
0.09455453 -0.33769473 0.14858569 -0.22287853 0.12157011 0.256648 -0.37146422 -0.06753895
0.1350779 -0.27690968 -0.128324 -0.11481621 -0.18910906 -0.006753895 -0.20261686 0.11481621
-0.128324 -0.10130843 0.15533958 0.047277264 0.08104674 0.05403116 -0.46601877 -0.10806232
-0.17560127 -0.21612464 -0.11481621 -0.074292846 0.2904175 -0.24314022 0.23638633 0.033769473
-0.10806232 0.17560127 0.27690968 -0.11481621 -0.35795644 0.18910906 0.22287853 0.08780064
0.033769473 0.14858569 -0.047277264 0.074292846 0.16884737 -0.15533958 -0.047277264 -0.128324
0.15533958 -0.074292846 -0.48628044 0.06753895 0.16209348 0.060785055 0.20261686 0.17560127
0.18910906 -0.44575706 -0.2836636 -0.3984798 -0.4254954 -0.033769473 0.17560127 -0.01350779
-0.3782181 -0.01350779 -0.12157011 0.033769473 0.020261684 0.55381936 -0.1418318 0.01350779
-0.14858569 -0.14858569 -0.1418318 0.1418318 -0.006753895 0.35795644 0.06753895 0.09455453
-0.02701558 -0.30392528 -0.1350779 -0.5268038 -0.02701558 -0.10806232 -0.21612464 -0.18235517
-0.14858569 -0.24314022 -0.256648 -0.05403116 -0.10130843 0.04052337 0.006753895 -0.22287853
00000000: 5d78 aa5d 5c50 498b 4f81 8f7d 5846 944a
00000010: b648 7045 5f84 4587 6d5a 7267 7d84 579b
00000020: 7568 e194 9677 8386 8182 859e 8493 a190
00000030: 5165 8b60 686b 8183 8c90 67be 8c7c 6874
00000040: 9684 9654 8b87 4187 4c84 956b 8770 5868
00000050: 6d65 a06f 9894 5a56 a189 7e4e 6687 7a9b
00000060: 8d93 9458 647e 883e 8152 6768 b369 488a
00000070: 7f57 6b7d 695b 6173 54c7 7363 ae8f 7a71
00000080: 575c 5f6c 8679 8d73 4c8b 494b 6b56 6c86
00000090: 76a1 7f7d 5180 8d73 9849 5c83 622e 814d
000000a0: 8d4d 955e 91a5 4875 9356 6c6e 637e 6190
000000b0: 6c70 9686 8b87 3a6f 655f 6e74 aa5b a284
000000c0: 6f99 a86e 4a9b a08c 8495 788a 9868 786c
000000d0: 9674 3789 9788 9d99 9b3d 5544 407a 997d
000000e0: 477d 6d84 82d1 6a81 6969 6a94 7eb4 898d
000000f0: 7b52 6b31 7b6f 5f64 695b 5977 7085 805e
