src/gallium/targets/teflon/tests/models/ssdmobilenetv2/029.tflite (tflite, 6816 bytes, 1 tensors)

FeatureExtractor/MobilenetV2/expanded_conv_8/depthwise/depthwise_Fold;FeatureExtractor/MobilenetV2/expanded_conv_8/depthwise/weights_quant/FakeQuantWithMinMaxVars u1 [1, 3, 3, 384] scale=0.036415387 zero_point=77
0	0x4d	0.0
1	0x53	0.21849233
2	0xa4	3.1681387
3	0x56	0.3277385
4	0x49	-0.14566155
5	0x5a	0.47340003
6	0x4f	0.072830774
7	0x54	0.2549077
8	0x43	-0.36415386
9	0x43	-0.36415386
10	0x5d	0.5826462
11	0x4c	-0.036415387
12	0x4c	-0.036415387
13	0x56	0.3277385
14	0x4b	-0.072830774
15	0x4b	-0.072830774
16	0x41	-0.43698466
17	0x52	0.18207693
18	0x4c	-0.036415387
19	0x55	0.2913231
20	0x46	-0.2549077
21	0x43	-0.36415386
22	0x51	0.14566155
23	0x4a	-0.109246165
24	0x42	-0.40056926
25	0x55	0.2913231
26	0x48	-0.18207693
27	0x2d	-1.1652924
28	0x5a	0.47340003
29	0x51	0.14566155
30	0x53	0.21849233
31	0x4e	0.036415387
32	0x4d	0.0
33	0x7d	1.7479386
34	0x59	0.43698466
35	0x51	0.14566155
36	0x4b	-0.072830774
37	0x49	-0.14566155
38	0x4f	0.072830774
39	0x49	-0.14566155
40	0x4e	0.036415387
41	0x4e	0.036415387
42	0x46	-0.2549077
43	0x58	0.40056926
44	0x56	0.3277385
45	0x58	0.40056926
46	0x61	0.7283077
47	0x53	0.21849233
48	0x4d	0.0
49	0x55	0.2913231
50	0x50	0.109246165
51	0x5e	0.6190616
52	0x48	-0.18207693
53	0x48	-0.18207693
54	0x57	0.36415386
55	0x55	0.2913231
56	0x58	0.40056926
57	0x45	-0.2913231
58	0x52	0.18207693
59	0x53	0.21849233
60	0x53	0.21849233
61	0x53	0.21849233
62	0x51	0.14566155
63	0x65	0.8739693
64	0x55	0.2913231
65	0x46	-0.2549077
66	0x4b	-0.072830774
67	0x53	0.21849233
68	0x51	0.14566155
69	0x4e	0.036415387
70	0x4c	-0.036415387
71	0x4d	0.0
72	0x56	0.3277385
73	0x3f	-0.5098154
74	0x45	-0.2913231
75	0x4e	0.036415387
76	0x53	0.21849233
77	0x4c	-0.036415387
78	0x56	0.3277385
79	0x47	-0.21849233
80	0x41	-0.43698466
81	0x3d	-0.5826462
82	0x45	-0.2913231
83	0x45	-0.2913231
84	0x56	0.3277385
85	0x4f	0.072830774
86	0x55	0.2913231
87	0x4b	-0.072830774
88	0x56	0.3277385
89	0x4f	0.072830774
90	0x4e	0.036415387
91	0x63	0.8011385
92	0x4c	-0.036415387
93	0x50	0.109246165
94	0x55	0.2913231
95	0x49	-0.14566155
96	0x48	-0.18207693
97	0x4e	0.036415387
98	0x57	0.36415386
99	0x48	-0.18207693
100	0x42	-0.40056926
101	0x40	-0.47340003
102	0x52	0.18207693
103	0x57	0.36415386
104	0x4e	0.036415387
105	0x5c	0.5462308
106	0x44	-0.3277385
107	0x4a	-0.109246165
108	0x4f	0.072830774
109	0x4b	-0.072830774
110	0x47	-0.21849233
111	0x4c	-0.036415387
112	0x50	0.109246165
113	0x57	0.36415386
114	0x4e	0.036415387
115	0x55	0.2913231
116	0x4d	0.0
117	0x51	0.14566155
118	0x4f	0.072830774
119	0x55	0.2913231
120	0x50	0.109246165
121	0x45	-0.2913231
122	0x43	-0.36415386
123	0x4d	0.0
124	0x4a	-0.109246165
125	0x45	-0.2913231
126	0x5d	0.5826462
127	0x41	-0.43698466
128	0x51	0.14566155
129	0x49	-0.14566155
130	0x4d	0.0
131	0x4d	0.0
132	0x4b	-0.072830774
133	0x59	0.43698466
134	0x48	-0.18207693
135	0x52	0.18207693
136	0x51	0.14566155
137	0x4c	-0.036415387
138	0x43	-0.36415386
139	0x47	-0.21849233
140	0x44	-0.3277385
141	0x46	-0.2549077
142	0x53	0.21849233
143	0x4c	-0.036415387
144	0x58	0.40056926
145	0x42	-0.40056926
146	0x5f	0.655477
147	0x35	-0.8739693
148	0x43	-0.36415386
149	0x4a	-0.109246165
150	0x50	0.109246165
151	0x52	0.18207693
152	0x52	0.18207693
153	0x34	-0.91038465
154	0x54	0.2549077
155	0x5d	0.5826462
156	0x4b	-0.072830774
157	0x44	-0.3277385
158	0x57	0.36415386
159	0x69	1.0196308
160	0x43	-0.36415386
161	0x57	0.36415386
162	0x54	0.2549077
163	0x40	-0.47340003
164	0x48	-0.18207693
165	0x47	-0.21849233
166	0x46	-0.2549077
167	0x4c	-0.036415387
168	0x44	-0.3277385
169	0x4e	0.036415387
170	0x57	0.36415386
171	0x50	0.109246165
172	0x48	-0.18207693
173	0x53	0.21849233
174	0x4e	0.036415387
175	0x51	0.14566155
176	0x4f	0.072830774
177	0x4c	-0.036415387
178	0x44	-0.3277385
179	0x49	-0.14566155
180	0x43	-0.36415386
181	0x57	0.36415386
182	0x4c	-0.036415387
183	0x50	0.109246165
184	0x4d	0.0
185	0x43	-0.36415386
186	0x46	-0.2549077
187	0x54	0.2549077
188	0x52	0.18207693
189	0x65	0.8739693
190	0x4f	0.072830774
191	0x4a	-0.109246165
192	0x48	-0.18207693
193	0x4d	0.0
194	0x4c	-0.036415387
195	0x59	0.43698466
196	0x51	0.14566155
197	0x4b	-0.072830774
198	0x49	-0.14566155
199	0x49	-0.14566155
200	0x47	-0.21849233
201	0x4f	0.072830774
202	0x4f	0.072830774
203	0x4e	0.036415387
204	0x46	-0.2549077
205	0x4f	0.072830774
206	0x59	0.43698466
207	0x4e	0.036415387
208	0x4c	-0.036415387
209	0x69	1.0196308
210	0x4a	-0.109246165
211	0x58	0.40056926
212	0x5b	0.5098154
213	0x4f	0.072830774
214	0x56	0.3277385
215	0x4c	-0.036415387
216	0x4c	-0.036415387
217	0x44	-0.3277385
218	0x4f	0.072830774
219	0x4a	-0.109246165
220	0x4f	0.072830774
221	0x3f	-0.5098154
222	0x4f	0.072830774
223	0x51	0.14566155
224	0x46	-0.2549077
225	0x4b	-0.072830774
226	0x51	0.14566155
227	0x5e	0.6190616
228	0x48	-0.18207693
229	0x52	0.18207693
230	0x4e	0.036415387
231	0x4c	-0.036415387
232	0x4d	0.0
233	0x46	-0.2549077
234	0x48	-0.18207693
235	0x45	-0.2913231
236	0x4e	0.036415387
237	0x50	0.109246165
238	0x5b	0.5098154
239	0x45	-0.2913231
240	0x50	0.109246165
241	0x47	-0.21849233
242	0x4e	0.036415387
243	0x4c	-0.036415387
244	0x52	0.18207693
245	0x5e	0.6190616
246	0x54	0.2549077
247	0x62	0.7647231
248	0x50	0.109246165
249	0x3b	-0.655477
250	0x43	-0.36415386
251	0x52	0.18207693
252	0x58	0.40056926
253	0x4f	0.072830774
254	0x43	-0.36415386
255	0x41	-0.43698466
