src/gallium/targets/teflon/tests/models/movenetthunder/024.tflite (tflite, 15888 bytes, 1 tensors)

center_net_mobile_net_v2fpn_feature_extractor/model_1/model/block_5_depthwise_BN/FusedBatchNormV3;center_net_mobile_net_v2fpn_feature_extractor/model_1/model/block_5_depthwise/depthwise;center_net_mobile_net_v2fpn_feature_extractor/model_1/model/block_6_depthwise/depthwise i1 [1, 3, 3, 336]
00000000: b1ce ee76 7f21 f0fb 0716 7fc1 00d1 bfd0
00000010: 491f aac5 01f9 a7b8 f4aa 093b e224 2192
00000020: 13f8 a1f0 3031 7f00 113c e6f0 e8c2 4a57
00000030: dc10 f501 9ab9 3646 1113 e159 023b ca05
00000040: 1320 ff5f 1592 d006 11f2 fc14 de42 317f
00000050: c19d ec92 cbde 3bff 34c2 0d7f 45a4 f7e2
00000060: c811 477f 074d 2d5e 0bf7 134b 4ebe cefb
00000070: dff4 191d 6010 04b4 a7f7 8d46 c174 e6fc
00000080: c57b 292b ef59 73b9 1339 14f3 0e7f 0af3
00000090: f5f3 1425 e9d8 cd4d 7cb0 5154 2237 7f7f
000000a0: eeec 918e e7d5 98e0 f0e4 e7ea d5fc 3d2b
000000b0: e327 810c 8531 f933 cce5 28d5 0593 e0ff
000000c0: 111a 1dde 65f3 1c7f bef0 3824 e1d0 7fcc
000000d0: f181 137f b2bb f320 a9f4 7b91 00f9 712c
000000e0: 5108 15c5 f805 ab16 207f c33f 3afb 2e1e
000000f0: f409 5004 7f7f 273c 7f3e 4d56 2508 01f5
-79 -50 -18 118 127 33 -16 -5
7 22 127 -63 0 -47 -65 -48
73 31 -86 -59 1 -7 -89 -72
-12 -86 9 59 -30 36 33 -110
19 -8 -95 -16 48 49 127 0
17 60 -26 -16 -24 -62 74 87
-36 16 -11 1 -102 -71 54 70
17 19 -31 89 2 59 -54 5
19 32 -1 95 21 -110 -48 6
17 -14 -4 20 -34 66 49 127
-63 -99 -20 -110 -53 -34 59 -1
52 -62 13 127 69 -92 -9 -30
-56 17 71 127 7 77 45 94
11 -9 19 75 78 -66 -50 -5
-33 -12 25 29 96 16 4 -76
-89 -9 -115 70 -63 116 -26 -4
-59 123 41 43 -17 89 115 -71
19 57 20 -13 14 127 10 -13
-11 -13 20 37 -23 -40 -51 77
124 -80 81 84 34 55 127 127
-18 -20 -111 -114 -25 -43 -104 -32
-16 -28 -25 -22 -43 -4 61 43
-29 39 -127 12 -123 49 -7 51
-52 -27 40 -43 5 -109 -32 -1
17 26 29 -34 101 -13 28 127
-66 -16 56 36 -31 -48 127 -52
-15 -127 19 127 -78 -69 -13 32
-87 -12 123 -111 0 -7 113 44
81 8 21 -59 -8 5 -85 22
32 127 -61 63 58 -5 46 30
-12 9 80 4 127 127 39 60
127 62 77 86 37 8 1 -11
