src/gallium/targets/teflon/tests/models/movenetthunder/055.tflite (tflite, 200016 bytes, 1 tensors)

center_net_mobile_net_v2fpn_feature_extractor/model_1/model/block_13_expand/Conv2D i1 [1008, 1, 1, 168]
53 24 59 38 -10 -4 -26 41
-15 -35 7 -35 24 -46 -1 4
-33 6 32 18 107 -11 -127 -53
61 -30 10 7 74 36 -8 -27
-46 106 24 9 21 -96 14 10
10 -73 -19 -7 34 -3 -39 28
13 93 13 33 -46 -123 35 -62
-12 1 -45 15 -1 -34 115 -7
36 15 -35 16 20 -2 2 16
-22 1 12 41 3 -67 -45 7
-13 80 -3 28 22 -50 -41 14
-12 -13 -8 12 7 -5 29 -1
-30 -3 -32 8 31 22 49 -41
7 3 -18 19 -67 -78 -12 55
32 -12 -38 -40 -32 -32 -14 -1
24 29 -12 -18 5 -4 59 -19
10 43 -27 -10 21 6 -38 12
10 -30 -23 -10 -22 2 11 15
-43 -12 -1 15 43 -44 27 36
-21 -21 -13 -38 -1 85 24 -16
-25 89 24 -3 16 28 58 -37
54 -5 0 53 -3 -46 12 -30
1 2 -1 -59 21 -4 -13 -80
-33 -34 -3 -27 61 4 -27 -52
-15 -39 -3 44 35 -35 -36 33
-1 -11 77 10 -6 2 -34 22
-13 -9 -56 47 -4 20 8 25
-26 56 -18 31 87 -3 72 27
26 -59 33 68 39 -64 1 25
-45 15 61 -4 55 101 -80 36
-15 -37 -4 -12 -28 85 71 1
0 0 67 -15 41 33 -40 -42
00000000: 3518 3b26 f6fc e629 f1dd 07dd 18d2 ff04
00000010: df06 2012 6bf5 81cb 3de2 0a07 4a24 f8e5
00000020: d26a 1809 15a0 0e0a 0ab7 edf9 22fd d91c
00000030: 0d5d 0d21 d285 23c2 f401 d30f ffde 73f9
00000040: 240f dd10 14fe 0210 ea01 0c29 03bd d307
00000050: f350 fd1c 16ce d70e f4f3 f80c 07fb 1dff
00000060: e2fd e008 1f16 31d7 0703 ee13 bdb2 f437
00000070: 20f4 dad8 e0e0 f2ff 181d f4ee 05fc 3bed
00000080: 0a2b e5f6 1506 da0c 0ae2 e9f6 ea02 0b0f
00000090: d5f4 ff0f 2bd4 1b24 ebeb f3da ff55 18f0
000000a0: e759 18fd 101c 3adb 36fb 0035 fdd2 0ce2
000000b0: 0102 ffc5 15fc f3b0 dfde fde5 3d04 e5cc
000000c0: f1d9 fd2c 23dd dc21 fff5 4d0a fa02 de16
000000d0: f3f7 c82f fc14 0819 e638 ee1f 57fd 481b
000000e0: 1ac5 2144 27c0 0119 d30f 3dfc 3765 b024
000000f0: f1db fcf4 e455 4701 0000 43f1 2921 d8d6
