src/gallium/targets/teflon/tests/models/movenetthunder/083.tflite (tflite, 3184 bytes, 1 tensors)

center_0/separable_conv2d_3/separable_conv2d/depthwise i1 [1, 3, 3, 24]
00000000: af44 144a b10a d63e 8163 c28e 2b7f d10b
00000010: aa81 cd7f 407b e81a 7fd2 1287 7f1d 810f
00000020: a20a 3ed8 dc7a 677f b4e9 81f7 a554 bc7f
00000030: d6e5 c63c be7f 3ddc 8b27 c081 1c5a e21d
00000040: 0559 d8cb 1e7f 012c d105 0d24 f990 04d7
00000050: 1405 f0d2 1712 d5ea 81c5 106c 0a25 311f
00000060: 59b8 7f81 279a c1f7 4681 7fff 8a41 5f36
00000070: bd4a 1b19 8123 c741 dedd 0528 fedf 56de
00000080: 1df7 f003 e20f 0dee 9946 12dc d029 ed21
00000090: 00eb 8655 0f12 b181 39dd c8b9 e4c7 81d5
000000a0: ae07 0e41 4504 7fea fa81 dc8a f00a 91d1
000000b0: 5fc0 5a11 81e5 13f3 ba67 cafc ddf8 eb26
000000c0: fdeb 9327 152c 6bcb 45e4 e319 a59e e9c6
000000d0: 1000 f3ee 152a cb08
-81 68 20 74 -79 10 -42 62
-127 99 -62 -114 43 127 -47 11
-86 -127 -51 127 64 123 -24 26
127 -46 18 -121 127 29 -127 15
-94 10 62 -40 -36 122 103 127
-76 -23 -127 -9 -91 84 -68 127
-42 -27 -58 60 -66 127 61 -36
-117 39 -64 -127 28 90 -30 29
5 89 -40 -53 30 127 1 44
-47 5 13 36 -7 -112 4 -41
20 5 -16 -46 23 18 -43 -22
-127 -59 16 108 10 37 49 31
89 -72 127 -127 39 -102 -63 -9
70 -127 127 -1 -118 65 95 54
-67 74 27 25 -127 35 -57 65
-34 -35 5 40 -2 -33 86 -34
29 -9 -16 3 -30 15 13 -18
-103 70 18 -36 -48 41 -19 33
0 -21 -122 85 15 18 -79 -127
57 -35 -56 -71 -28 -57 -127 -43
-82 7 14 65 69 4 127 -22
-6 -127 -36 -118 -16 10 -111 -47
95 -64 90 17 -127 -27 19 -13
-70 103 -54 -4 -35 -8 -21 38
-3 -21 -109 39 21 44 107 -53
69 -28 -29 25 -91 -98 -23 -58
16 0 -13 -18 21 42 -53 8
