src/gallium/targets/teflon/tests/models/movenetthunder/106.tflite (tflite, 3216 bytes, 1 tensors)

kpt_offset_0/separable_conv2d_6/separable_conv2d/depthwise i1 [1, 3, 3, 24]
000000 06 aa e3 7f 10 bb 28 dd 6f ce c9 06 89 7f 7d 18
       6 -86 -29 127 16 -69 40 -35 111 -50 -55 6 -119 127 125 24
000010 b5 81 c3 eb 1e 36 a7 0b 11 cf bd 0e 53 e2 d3 3f
       -75 -127 -61 -21 30 54 -89 11 17 -49 -67 14 83 -30 -45 63
000020 29 4e 37 4b bf da 23 ce 7f cf 7f d1 54 45 5e f2
       41 78 55 75 -65 -38 35 -50 127 -49 127 -47 84 69 94 -14
000030 0f 73 81 cf 7f 73 f9 f0 6b e4 07 ce a5 90 7f 04
       15 115 -127 -49 127 115 -7 -16 107 -28 7 -50 -91 -112 127 4
000040 f2 9d d7 01 28 1b 05 fe 08 c9 fe 44 12 b9 dc 64
       -14 -99 -41 1 40 27 5 -2 8 -55 -2 68 18 -71 -36 100
000050 28 00 7f 98 2f 73 18 c3 20 dd 4d 81 4b 27 33 7f
       40 0 127 -104 47 115 24 -61 32 -35 77 -127 75 39 51 127
000060 11 de ee 5a 32 e6 81 7f 09 76 6b 08 63 df f8 81
       17 -34 -18 90 50 -26 -127 127 9 118 107 8 99 -33 -8 -127
000070 f4 05 6c c2 7b 39 7e da 05 7f 06 52 20 4d c0 57
       -12 5 108 -62 123 57 126 -38 5 127 6 82 32 77 -64 87
000080 28 36 51 6c 44 c1 fd 8f de e3 36 ea 70 2e 7f b4
       40 54 81 108 68 -63 -3 -113 -34 -29 54 -22 112 46 127 -76
000090 7f ba 1b ff 69 8f 02 4f 86 3e e6 81 56 56 8a e8
       127 -70 27 -1 105 -113 2 79 -122 62 -26 -127 86 86 -118 -24
0000a0 68 66 11 c6 81 81 ce 51 1c cd d1 df 15 f3 d3 3c
       104 102 17 -58 -127 -127 -50 81 28 -51 -47 -33 21 -13 -45 60
0000b0 a4 7f 26 d5 7f d5 bb 9f 1c 69 77 07 01 c9 2e a8
       -92 127 38 -43 127 -43 -69 -97 28 105 119 7 1 -55 46 -88
0000c0 28 71 ea e1 2e 7f 0b 17 81 4e db 76 60 dc 88 01
       40 113 -22 -31 46 127 11 23 -127 78 -37 118 96 -36 -120 1
0000d0 67 6c fa 31 09 af 19 f8
       103 108 -6 49 9 -81 25 -8
