src/gallium/targets/teflon/tests/models/inception/015.tflite (tflite, 223696 bytes, 1 tensors)

InceptionV1/InceptionV1/Mixed_3c/Branch_1/Conv2d_0b_3x3/Conv2D_Fold;InceptionV1/InceptionV1/Mixed_3c/Branch_1/Conv2d_0b_3x3/weights_quant/FakeQuantWithMinMaxVars u1 [192, 3, 3, 128] scale=0.0035989578 zero_point=94
00000000: 6b61 5f61 5659 5d5d 625c 634c 615c 6572
00000010: 6e5e 4d5a 625b 5965 5a5a 5d5e 6060 5c58
00000020: 5559 605b 5852 795b 5f58 5f68 5c4d 595b
00000030: 6062 536b 5962 615f 6157 5b55 5265 6156
00000040: 5a5a 6059 5164 665c 5e58 6a4f 6165 5a5e
00000050: 505a 6062 725f 5056 5d50 625a 5861 625e
00000060: 6673 5564 7265 814f 5861 5b54 6737 4f62
00000070: 635b 5f61 6159 566c 5458 695d 556d 734f
00000080: 7a5f 5853 574b 6459 4f5a 663c 6969 5573
00000090: a268 4a60 645e 5964 5161 6159 5551 5067
000000a0: 5b59 5b53 445c 6841 695f 606a 545c 6067
000000b0: 565b 5d52 5c5e 6959 5e70 6266 6561 694c
000000c0: 5a5d 5f62 5a62 6556 6960 6a49 636d 524f
000000d0: 4c53 5168 7660 2748 5559 5557 6c67 5873
000000e0: 725d 595c 6b5e 8d47 3f5b 571e 6f2c 5e65
000000f0: 645a 3e55 625f 4969 5a51 785b 55a3 6769
0.04678645 0.010796873 0.0035989578 0.010796873 -0.028791662 -0.01799479 -0.0035989578 -0.0035989578
0.014395831 -0.0071979156 0.01799479 -0.06478124 0.010796873 -0.0071979156 0.025192704 0.07197916
0.057583325 0.0 -0.061182283 -0.014395831 0.014395831 -0.010796873 -0.01799479 0.025192704
-0.014395831 -0.014395831 -0.0035989578 0.0 0.0071979156 0.0071979156 -0.0071979156 -0.021593746
-0.03239062 -0.01799479 0.0071979156 -0.010796873 -0.021593746 -0.04318749 0.09717186 -0.010796873
0.0035989578 -0.021593746 0.0035989578 0.03598958 -0.0071979156 -0.061182283 -0.01799479 -0.010796873
0.0071979156 0.014395831 -0.039588537 0.04678645 -0.01799479 0.014395831 0.010796873 0.0035989578
0.010796873 -0.025192704 -0.010796873 -0.03239062 -0.04318749 0.025192704 0.010796873 -0.028791662
-0.014395831 -0.014395831 0.0071979156 -0.01799479 -0.04678645 0.021593746 0.028791662 -0.0071979156
0.0 -0.021593746 0.04318749 -0.053984366 0.010796873 0.025192704 -0.014395831 0.0
-0.050385408 -0.014395831 0.0071979156 0.014395831 0.07197916 0.0035989578 -0.050385408 -0.028791662
-0.0035989578 -0.050385408 0.014395831 -0.014395831 -0.021593746 0.010796873 0.014395831 0.0
0.028791662 0.075578116 -0.03239062 0.021593746 0.07197916 0.025192704 0.12596352 -0.053984366
-0.021593746 0.010796873 -0.010796873 -0.03598958 0.03239062 -0.14035936 -0.053984366 0.014395831
0.01799479 -0.010796873 0.0035989578 0.010796873 0.010796873 -0.01799479 -0.028791662 0.050385408
-0.03598958 -0.021593746 0.039588537 -0.0035989578 -0.03239062 0.053984366 0.075578116 -0.053984366
0.100770816 0.0035989578 -0.021593746 -0.039588537 -0.025192704 -0.0683802 0.021593746 -0.01799479
-0.053984366 -0.014395831 0.028791662 -0.122364566 0.039588537 0.039588537 -0.03239062 0.075578116
0.24472913 0.03598958 -0.07197916 0.0071979156 0.021593746 0.0 -0.01799479 0.021593746
-0.04678645 0.010796873 0.010796873 -0.01799479 -0.03239062 -0.04678645 -0.050385408 0.03239062
-0.010796873 -0.01799479 -0.010796873 -0.039588537 -0.0935729 -0.0071979156 0.03598958 -0.104369774
0.039588537 0.0035989578 0.0071979156 0.04318749 -0.03598958 -0.0071979156 0.0071979156 0.03239062
-0.028791662 -0.010796873 -0.0035989578 -0.04318749 -0.0071979156 0.0 0.039588537 -0.01799479
0.0 0.06478124 0.014395831 0.028791662 0.025192704 0.010796873 0.039588537 -0.06478124
-0.014395831 -0.0035989578 0.0035989578 0.014395831 -0.014395831 0.014395831 0.025192704 -0.028791662
0.039588537 0.0071979156 0.04318749 -0.075578116 0.01799479 0.053984366 -0.04318749 -0.053984366
-0.06478124 -0.039588537 -0.04678645 0.03598958 0.08637498 0.0071979156 -0.19794267 -0.079177074
-0.03239062 -0.01799479 -0.03239062 -0.025192704 0.050385408 0.03239062 -0.021593746 0.075578116
0.07197916 -0.0035989578 -0.01799479 -0.0071979156 0.04678645 0.0 0.16915102 -0.08277603
-0.11156769 -0.010796873 -0.025192704 -0.2303333 0.061182283 -0.17994788 0.0 0.025192704
0.021593746 -0.014395831 -0.11516665 -0.03239062 0.014395831 0.0035989578 -0.075578116 0.039588537
-0.014395831 -0.04678645 0.0935729 -0.010796873 -0.03239062 0.24832809 0.03239062 0.039588537
