src/gallium/targets/teflon/tests/models/inception/046.tflite (tflite, 59168 bytes, 1 tensors)

InceptionV1/InceptionV1/Mixed_4e/Branch_0/Conv2d_0a_1x1/Conv2D_Fold;InceptionV1/InceptionV1/Mixed_4e/Branch_0/Conv2d_0a_1x1/weights_quant/FakeQuantWithMinMaxVars u1 [112, 1, 1, 512] scale=0.005417209 zero_point=131
0.027086046 0.0 -0.005417209 -0.23293999 -0.043337673 -0.07042372 0.027086046 0.097509764
0.048754882 -0.005417209 0.08125813 0.07042372 -0.124595806 0.021668836 -0.016251627 0.027086046
0.021668836 -0.027086046 0.032503255 0.027086046 0.032503255 -0.08125813 -0.10292697 0.21127115
0.097509764 0.043337673 -0.29252928 0.14626464 0.032503255 -0.086675346 -0.005417209 0.05417209
0.021668836 0.0 0.005417209 0.16251627 0.06500651 -0.021668836 0.0 -0.1191786
0.043337673 0.037920464 -0.027086046 0.021668836 0.010834418 -0.08125813 -0.05417209 0.032503255
0.38462186 0.010834418 0.010834418 -0.05417209 -0.010834418 0.021668836 -0.032503255 -0.016251627
-0.07584093 0.0 0.0 0.07042372 0.037920464 0.09209256 -0.021668836 0.043337673
0.037920464 0.027086046 -0.06500651 -0.07584093 0.05417209 0.06500651 0.027086046 -0.021668836
-0.043337673 0.005417209 0.005417209 -0.016251627 -0.005417209 -0.005417209 0.027086046 -0.021668836
-0.032503255 -0.021668836 -0.010834418 -0.15709907 0.010834418 -0.124595806 -0.097509764 -0.037920464
0.005417209 0.048754882 -0.010834418 0.027086046 -0.021668836 0.016251627 0.06500651 0.032503255
0.048754882 -0.0595893 0.06500651 -0.016251627 0.016251627 -0.037920464 0.0 -0.05417209
0.0 0.08125813 -0.043337673 -0.05417209 -0.032503255 -0.0595893 0.032503255 -0.005417209
0.048754882 0.0595893 0.0 0.05417209 0.0 -0.010834418 -0.032503255 0.037920464
-0.06500651 0.010834418 -0.07584093 -0.17335069 -0.016251627 -0.005417209 0.037920464 0.021668836
-0.005417209 -0.016251627 0.09209256 0.027086046 -0.005417209 0.05417209 0.010834418 -0.021668836
-0.06500651 0.005417209 0.005417209 -0.016251627 -0.07042372 -0.07042372 -0.005417209 0.021668836
0.005417209 0.005417209 0.0 -0.037920464 0.0 -0.032503255 -0.010834418 0.0
-0.016251627 0.021668836 -0.05417209 -0.027086046 -0.010834418 0.010834418 0.09209256 0.010834418
-0.037920464 -0.05417209 0.032503255 -0.021668836 0.027086046 -0.037920464 -0.027086046 0.021668836
0.037920464 -0.07584093 0.08125813 0.005417209 -0.005417209 -0.010834418 0.027086046 -0.021668836
-0.027086046 -0.0595893 -0.016251627 0.0 -0.0595893 0.05417209 -0.005417209 0.027086046
0.016251627 -0.032503255 -0.043337673 0.0595893 -0.016251627 -0.016251627 0.027086046 0.0
0.06500651 -0.010834418 -0.005417209 0.010834418 -0.010834418 0.021668836 0.016251627 0.0595893
-0.005417209 0.005417209 0.016251627 0.027086046 -0.021668836 -0.037920464 0.027086046 -0.0595893
-0.027086046 0.016251627 -0.06500651 0.048754882 0.005417209 -0.021668836 0.06500651 -0.021668836
-0.097509764 0.032503255 -0.027086046 0.027086046 0.043337673 -0.021668836 -0.005417209 0.016251627
0.032503255 0.010834418 0.0 -0.027086046 -0.097509764 -0.032503255 0.005417209 -0.005417209
0.005417209 -0.016251627 -0.021668836 0.07042372 -0.005417209 -0.05417209 0.016251627 -0.027086046
-0.032503255 0.016251627 -0.010834418 -0.010834418 -0.032503255 0.005417209 0.016251627 0.0
0.016251627 0.027086046 0.021668836 0.016251627 -0.13001302 0.0 0.010834418 0.0
00000000: 8883 8258 7b76 8895 8c82 9290 6c87 8088
00000010: 877e 8988 8974 70aa 958b 4d9e 8973 828d
00000020: 8783 84a1 8f7f 836d 8b8a 7e87 8574 7989
00000030: ca85 8579 8187 7d80 7583 8390 8a94 7f8b
00000040: 8a88 7775 8d8f 887f 7b84 8480 8282 887f
00000050: 7d7f 8166 856c 717c 848c 8188 7f86 8f89
00000060: 8c78 8f80 867c 8379 8392 7b79 7d78 8982
00000070: 8c8e 838d 8381 7d8a 7785 7563 8082 8a87
00000080: 8280 9488 828d 857f 7784 8480 7676 8287
00000090: 8484 837c 837d 8183 8087 797e 8185 9485
000000a0: 7c79 897f 887c 7e87 8a75 9284 8281 887f
000000b0: 7e78 8083 788d 8288 867d 7b8e 8080 8883
000000c0: 8f81 8285 8187 868e 8284 8688 7f7c 8878
000000d0: 7e86 778c 847f 8f7f 7189 7e88 8b7f 8286
000000e0: 8985 837e 717d 8482 8480 7f90 8279 867e
000000f0: 7d86 8181 7d84 8683 8688 8786 6b83 8583
