src/gallium/targets/teflon/tests/models/inception/055.tflite (tflite, 86560 bytes, 1 tensors)

InceptionV1/InceptionV1/Mixed_4f/Branch_1/Conv2d_0a_1x1/Conv2D_Fold;InceptionV1/InceptionV1/Mixed_4f/Branch_1/Conv2d_0a_1x1/weights_quant/FakeQuantWithMinMaxVars u1 [160, 1, 1, 528] scale=0.005433372 zero_point=105
00000000: 7160 6878 664d 5187 3a79 4a61 6a6a 616e
00000010: 805e 5c5a 5462 6a51 4c6c 5a57 717b 845a
00000020: 7d84 7e6d 6985 6d54 5588 7e75 7c46 6484
00000030: 6f6d 5c6a 5889 535f 7473 586b 855e 6c5f
00000040: 5662 5366 6360 7851 7169 516c 5b5c 8c5f
00000050: 615a 645d 4b5d 8c69 7970 7271 7477 9a7e
00000060: 7c68 8f71 5660 656a 5c6c 6c63 695c 5d80
00000070: 6a59 5478 5770 5e5f 616a 6a5e 5963 7473
00000080: 6466 6762 6860 6374 585b 7e63 7869 5277
00000090: 5c5c 6b58 6963 7861 666e 535c 7163 6367
000000a0: 705a 8181 6f4d 8255 586c 615a 958b 8567
000000b0: 735d 6d46 7d63 6274 686f 5569 8753 956e
000000c0: 6768 7460 5e65 675f 7b56 7065 7282 6767
000000d0: 6a80 5959 6582 6271 6b75 6071 7556 806b
000000e0: 755e 4f68 746f 5b6a 746b 627b 7b63 616c
000000f0: 6963 6360 8867 6478 5c73 6356 646a 736c
0.043466978 -0.04890035 -0.005433372 0.08150058 -0.016300116 -0.15213442 -0.13040093 0.16300116
-0.2553685 0.086933956 -0.16843455 -0.043466978 0.005433372 0.005433372 -0.043466978 0.027166862
0.12496756 -0.059767094 -0.070633836 -0.08150058 -0.114100814 -0.038033605 0.005433372 -0.13040093
-0.1575678 0.016300116 -0.08150058 -0.0978007 0.043466978 0.0978007 0.14670105 -0.08150058
0.10866745 0.14670105 0.114100814 0.021733489 0.0 0.15213442 0.021733489 -0.114100814
-0.10866745 0.16843455 0.114100814 0.06520046 0.103234075 -0.19016802 -0.027166862 0.14670105
0.03260023 0.021733489 -0.070633836 0.005433372 -0.09236733 0.17386791 -0.11953419 -0.054333724
0.059767094 0.054333724 -0.09236733 0.010866744 0.15213442 -0.059767094 0.016300116 -0.054333724
-0.103234075 -0.038033605 -0.11953419 -0.016300116 -0.03260023 -0.04890035 0.08150058 -0.13040093
0.043466978 0.0 -0.13040093 0.016300116 -0.07606721 -0.070633836 0.19016802 -0.054333724
-0.043466978 -0.08150058 -0.027166862 -0.06520046 -0.16300116 -0.06520046 0.19016802 0.0
0.086933956 0.038033605 0.04890035 0.043466978 0.059767094 0.07606721 0.26623523 0.114100814
0.103234075 -0.005433372 0.20646815 0.043466978 -0.103234075 -0.04890035 -0.021733489 0.005433372
-0.070633836 0.016300116 0.016300116 -0.03260023 0.0 -0.070633836 -0.06520046 0.12496756
0.005433372 -0.086933956 -0.114100814 0.08150058 -0.0978007 0.038033605 -0.059767094 -0.054333724
-0.043466978 0.005433372 0.005433372 -0.059767094 -0.086933956 -0.03260023 0.059767094 0.054333724
-0.027166862 -0.016300116 -0.010866744 -0.038033605 -0.005433372 -0.04890035 -0.03260023 0.059767094
-0.09236733 -0.07606721 0.114100814 -0.03260023 0.08150058 0.0 -0.12496756 0.07606721
-0.070633836 -0.070633836 0.010866744 -0.09236733 0.0 -0.03260023 0.08150058 -0.043466978
-0.016300116 0.027166862 -0.11953419 -0.070633836 0.043466978 -0.03260023 -0.03260023 -0.010866744
0.038033605 -0.08150058 0.13040093 0.13040093 0.03260023 -0.15213442 0.1358343 -0.10866745
-0.09236733 0.016300116 -0.043466978 -0.08150058 0.23906837 0.18473466 0.15213442 -0.010866744
0.054333724 -0.06520046 0.021733489 -0.19016802 0.10866745 -0.03260023 -0.038033605 0.059767094
-0.005433372 0.03260023 -0.10866745 0.0 0.16300116 -0.11953419 0.23906837 0.027166862
-0.010866744 -0.005433372 0.059767094 -0.04890035 -0.059767094 -0.021733489 -0.010866744 -0.054333724
0.0978007 -0.103234075 0.038033605 -0.021733489 0.04890035 0.1358343 -0.010866744 -0.010866744
0.005433372 0.12496756 -0.086933956 -0.086933956 -0.021733489 0.1358343 -0.038033605 0.043466978
0.010866744 0.06520046 -0.04890035 0.043466978 0.06520046 -0.103234075 0.12496756 0.010866744
0.06520046 -0.059767094 -0.14126767 -0.005433372 0.059767094 0.03260023 -0.07606721 0.005433372
0.059767094 0.010866744 -0.038033605 0.0978007 0.0978007 -0.03260023 -0.043466978 0.016300116
0.0 -0.03260023 -0.03260023 -0.04890035 0.16843455 -0.010866744 -0.027166862 0.08150058
-0.070633836 0.054333724 -0.03260023 -0.103234075 -0.027166862 0.005433372 0.054333724 0.016300116
