src/gallium/targets/teflon/tests/models/efficientdet/003.tflite (tflite, 2400 bytes, 1 tensors)

efficientnet-lite0/blocks_0/conv2d/Conv2D i1 [16, 1, 1, 32]
0	0x08	8
1	0xff	-1
2	0xfd	-3
3	0xe5	-27
4	0x0b	11
5	0xc5	-59
6	0x08	8
7	0x1f	31
8	0xed	-19
9	0x7c	124
10	0x67	103
11	0x00	0
12	0xe9	-23
13	0xdf	-33
14	0x2b	43
15	0x5c	92
16	0x00	0
17	0x24	36
18	0x1e	30
19	0x29	41
20	0xf1	-15
21	0x36	54
22	0x12	18
23	0x08	8
24	0x3d	61
25	0x7f	127
26	0xfa	-6
27	0xac	-84
28	0x00	0
29	0x0b	11
30	0xdc	-36
31	0x00	0
32	0x06	6
33	0xe4	-28
34	0xfc	-4
35	0x11	17
36	0x06	6
37	0x00	0
38	0x16	22
39	0x04	4
40	0xf7	-9
41	0x2c	44
42	0x4a	74
43	0x00	0
44	0x02	2
45	0xfa	-6
46	0x81	-127
47	0xe7	-25
48	0x00	0
49	0xe3	-29
50	0x40	64
51	0x0d	13
52	0x25	37
53	0x0e	14
54	0x0a	10
55	0xb1	-79
56	0x18	24
57	0x19	25
58	0x27	39
59	0x08	8
60	0x00	0
61	0x91	-111
62	0x0b	11
63	0x00	0
64	0x07	7
65	0xfa	-6
66	0xf3	-13
67	0x39	57
68	0xd5	-43
69	0xf1	-15
70	0x0f	15
71	0x06	6
72	0xf4	-12
73	0x11	17
74	0x2a	42
75	0x00	0
76	0xf2	-14
77	0xef	-17
78	0x0f	15
79	0xf0	-16
80	0x00	0
81	0xf3	-13
82	0xf6	-10
83	0x11	17
84	0xf6	-10
85	0x14	20
86	0x29	41
87	0x7f	127
88	0x22	34
89	0xd2	-46
90	0x12	18
91	0x0d	13
92	0x00	0
93	0x09	9
94	0x0d	13
95	0x00	0
96	0x30	48
97	0xf7	-9
98	0x36	54
99	0x02	2
100	0x0b	11
101	0xc8	-56
102	0x0e	14
103	0x2c	44
104	0x69	105
105	0x99	-103
106	0x7c	124
107	0x00	0
108	0xbd	-67
109	0x1c	28
110	0x41	65
111	0x1c	28
112	0x00	0
113	0xfd	-3
114	0x1a	26
115	0x13	19
116	0xfd	-3
117	0x9e	-98
118	0x7f	127
119	0xfe	-2
120	0xec	-20
121	0x15	21
122	0x00	0
123	0xf9	-7
124	0x00	0
125	0xfa	-6
126	0x67	103
127	0x00	0
128	0x06	6
129	0x0a	10
130	0x02	2
131	0xfd	-3
132	0x05	5
133	0x0e	14
134	0x09	9
135	0xf8	-8
136	0xbb	-69
137	0x58	88
138	0x26	38
139	0x00	0
140	0x0d	13
141	0xea	-22
142	0x21	33
143	0xf3	-13
144	0x00	0
145	0xea	-22
146	0x04	4
147	0x0b	11
148	0xfb	-5
149	0x1b	27
150	0x7f	127
151	0xf6	-10
152	0xe3	-29
153	0xf4	-12
154	0xf6	-10
155	0xe6	-26
156	0x00	0
157	0x00	0
158	0x25	37
159	0x00	0
160	0x03	3
161	0xed	-19
162	0xfd	-3
163	0xf9	-7
164	0xfc	-4
165	0xec	-20
166	0x07	7
167	0xe5	-27
168	0xef	-17
169	0x2d	45
170	0x95	-107
171	0x00	0
172	0x81	-127
173	0xd0	-48
174	0xe1	-31
175	0xf8	-8
176	0x00	0
177	0xe6	-26
178	0xeb	-21
179	0xf1	-15
180	0x06	6
181	0xed	-19
182	0xf0	-16
183	0xfd	-3
184	0xf0	-16
185	0xf9	-7
186	0x01	1
187	0xf1	-15
188	0x00	0
189	0x08	8
190	0x0d	13
191	0x00	0
192	0x0f	15
193	0x1d	29
194	0x02	2
195	0x05	5
196	0xfe	-2
197	0x09	9
198	0x00	0
199	0xfc	-4
200	0x7f	127
201	0x61	97
202	0xf6	-10
203	0x00	0
204	0x00	0
205	0xff	-1
206	0xf1	-15
207	0xf5	-11
208	0x00	0
209	0x05	5
210	0x06	6
211	0x0a	10
212	0xf1	-15
213	0x02	2
214	0xff	-1
215	0xf5	-11
216	0xfb	-5
217	0xdf	-33
218	0xf1	-15
219	0xed	-19
220	0x00	0
221	0x02	2
222	0xe1	-31
223	0x00	0
224	0xfa	-6
225	0x03	3
226	0xe6	-26
227	0xfc	-4
228	0x08	8
229	0x12	18
230	0xec	-20
231	0x15	21
232	0x35	53
233	0xd6	-42
234	0x4b	75
235	0x00	0
236	0xfb	-5
237	0x81	-127
238	0x1e	30
239	0x08	8
240	0x00	0
241	0x04	4
242	0x0b	11
243	0x0b	11
244	0xf6	-10
245	0xeb	-21
246	0x10	16
247	0x06	6
248	0xff	-1
249	0x05	5
250	0x02	2
251	0xff	-1
252	0x00	0
253	0x02	2
254	0xf7	-9
255	0x00	0
