src/gallium/targets/teflon/tests/models/efficientdet/009.tflite (tflite, 5696 bytes, 1 tensors)

efficientnet-lite0/blocks_2/conv2d_1/Conv2D i1 [24, 1, 1, 144]
0	0xde	-34
1	0x35	53
2	0xf8	-8
3	0x8a	-118
4	0x13	19
5	0x2b	43
6	0xf1	-15
7	0xf5	-11
8	0xc6	-58
9	0x1e	30
10	0x57	87
11	0xd1	-47
12	0xfb	-5
13	0x4e	78
14	0x2a	42
15	0x18	24
16	0x6b	107
17	0x25	37
18	0x05	5
19	0x1c	28
20	0x3e	62
21	0xcf	-49
22	0x32	50
23	0xee	-18
24	0x01	1
25	0x45	69
26	0x2e	46
27	0xd9	-39
28	0x07	7
29	0xc4	-60
30	0x02	2
31	0xdb	-37
32	0x04	4
33	0xe0	-32
34	0xec	-20
35	0xef	-17
36	0xbc	-68
37	0xe2	-30
38	0xf5	-11
39	0x22	34
40	0x04	4
41	0x04	4
42	0x00	0
43	0x17	23
44	0xd7	-41
45	0x16	22
46	0x07	7
47	0x32	50
48	0xf8	-8
49	0x05	5
50	0x11	17
51	0x47	71
52	0x56	86
53	0xeb	-21
54	0x78	120
55	0x00	0
56	0x40	64
57	0x17	23
58	0xfb	-5
59	0x23	35
60	0xf7	-9
61	0xed	-19
62	0x04	4
63	0xa7	-89
64	0xf9	-7
65	0x1b	27
66	0x2a	42
67	0xf9	-7
68	0x57	87
69	0x03	3
70	0x52	82
71	0x18	24
72	0xf6	-10
73	0xc0	-64
74	0x1a	26
75	0x21	33
76	0x39	57
77	0x17	23
78	0xb7	-73
79	0x5a	90
80	0xcb	-53
81	0xdf	-33
82	0x02	2
83	0x0f	15
84	0x09	9
85	0x09	9
86	0xe8	-24
87	0xf4	-12
88	0x27	39
89	0x57	87
90	0xfb	-5
91	0x31	49
92	0x10	16
93	0xe6	-26
94	0xf4	-12
95	0xd1	-47
96	0x01	1
97	0x12	18
98	0xf9	-7
99	0x10	16
100	0xf7	-9
101	0xfe	-2
102	0xbf	-65
103	0xf4	-12
104	0x13	19
105	0xf7	-9
106	0x12	18
107	0xfc	-4
108	0x2f	47
109	0x60	96
110	0xff	-1
111	0xfb	-5
112	0xf9	-7
113	0xf7	-9
114	0x3b	59
115	0x07	7
116	0xd0	-48
117	0x3a	58
118	0x0d	13
119	0x38	56
120	0x11	17
121	0x0f	15
122	0x07	7
123	0xde	-34
124	0xf2	-14
125	0x23	35
126	0x34	52
127	0xed	-19
128	0xd9	-39
129	0x0b	11
130	0xca	-54
131	0xf5	-11
132	0x02	2
133	0xb8	-72
134	0xea	-22
135	0xfe	-2
136	0x2e	46
137	0xd4	-44
138	0x36	54
139	0x44	68
140	0x4c	76
141	0x00	0
142	0x7f	127
143	0xeb	-21
144	0x11	17
145	0xe2	-30
146	0x06	6
147	0xac	-84
148	0xd4	-44
149	0x1a	26
150	0x00	0
151	0x06	6
152	0xff	-1
153	0xda	-38
154	0x7f	127
155	0xe8	-24
156	0xc9	-55
157	0xf1	-15
158	0xf1	-15
159	0xf4	-12
160	0x08	8
161	0xfa	-6
162	0xba	-70
163	0x02	2
164	0x29	41
165	0x08	8
166	0x11	17
167	0xf5	-11
168	0xf0	-16
169	0xc7	-57
170	0xdb	-37
171	0x1e	30
172	0x11	17
173	0x3b	59
174	0x0e	14
175	0x4f	79
176	0xdd	-35
177	0xe5	-27
178	0xdb	-37
179	0x16	22
180	0xec	-20
181	0x10	16
182	0x18	24
183	0x17	23
184	0x10	16
185	0xff	-1
186	0x00	0
187	0x32	50
188	0xe5	-27
189	0x2a	42
190	0xfa	-6
191	0xe9	-23
192	0x0a	10
193	0x00	0
194	0xec	-20
195	0x0a	10
196	0x79	121
197	0x1b	27
198	0xe6	-26
199	0x00	0
200	0x1d	29
201	0x02	2
202	0xf8	-8
203	0x0e	14
204	0x3f	63
205	0x36	54
206	0xdb	-37
207	0x20	32
208	0xf4	-12
209	0x13	19
210	0x13	19
211	0x1d	29
212	0xf4	-12
213	0x18	24
214	0xf5	-11
215	0xfc	-4
216	0x26	38
217	0xfd	-3
218	0x10	16
219	0x2f	47
220	0x0a	10
221	0xed	-19
222	0x7b	123
223	0xf2	-14
224	0x02	2
225	0x25	37
226	0xc0	-64
227	0xe4	-28
228	0x0b	11
229	0xc3	-61
230	0x11	17
231	0xf9	-7
232	0x06	6
233	0x0b	11
234	0x19	25
235	0x12	18
236	0x02	2
237	0xd1	-47
238	0x04	4
239	0x27	39
240	0x09	9
241	0xf9	-7
242	0x03	3
243	0x0d	13
244	0xfe	-2
245	0xf1	-15
246	0x1a	26
247	0x04	4
248	0x03	3
249	0xf1	-15
250	0xf2	-14
251	0x04	4
252	0x00	0
253	0x29	41
254	0xf5	-11
255	0x16	22
