src/gallium/targets/teflon/tests/models/efficientdet/016.tflite (tflite, 12288 bytes, 1 tensors)

efficientnet-lite0/blocks_4/conv2d_1/Conv2D i1 [40, 1, 1, 240]
9 0 4 0 -42 8 1 24
36 -5 -33 -7 -38 -20 2 5
-14 24 -26 -3 2 8 -7 1
1 2 -3 -15 -4 0 27 -5
-5 -7 -3 35 -4 -8 -17 12
-8 -5 -9 -13 19 -25 -23 -9
22 5 -4 -18 -28 -5 0 4
-14 -15 -15 -2 27 -5 -6 0
12 -11 -5 -28 41 -6 0 -18
1 -23 -29 3 -7 -33 0 1
11 -49 -5 10 0 -19 9 -6
3 27 -15 34 0 3 -18 -17
23 17 9 21 12 1 3 -20
-13 -7 16 14 -9 24 -3 41
-15 -36 -4 -36 12 -11 -13 -3
-17 29 10 -14 -5 -15 -5 -25
-25 -6 2 1 -23 -32 -12 -8
-11 20 2 15 -28 -4 4 -4
-45 13 -8 6 -16 0 14 -2
-29 -2 -28 -5 -3 -19 -12 -3
10 25 12 -13 11 -4 26 33
-39 14 -26 1 14 -14 -1 -19
12 9 18 -43 5 -5 2 0
12 30 -7 -23 -4 -16 36 -5
25 -7 -5 10 127 -30 52 -11
15 3 -2 6 20 9 -1 -1
16 -16 0 22 14 -14 -8 2
-38 -1 13 -4 -35 -5 -19 18
7 -16 -28 -14 16 41 22 9
5 4 -2 7 2 32 15 44
-17 -8 -8 54 -45 -67 24 -31
-6 21 38 17 -46 65 -53 31
00000000: 0900 0400 d608 0118 24fb dff9 daec 0205
00000010: f218 e6fd 0208 f901 0102 fdf1 fc00 1bfb
00000020: fbf9 fd23 fcf8 ef0c f8fb f7f3 13e7 e9f7
00000030: 1605 fcee e4fb 0004 f2f1 f1fe 1bfb fa00
00000040: 0cf5 fbe4 29fa 00ee 01e9 e303 f9df 0001
00000050: 0bcf fb0a 00ed 09fa 031b f122 0003 eeef
00000060: 1711 0915 0c01 03ec f3f9 100e f718 fd29
00000070: f1dc fcdc 0cf5 f3fd ef1d 0af2 fbf1 fbe7
00000080: e7fa 0201 e9e0 f4f8 f514 020f e4fc 04fc
00000090: d30d f806 f000 0efe e3fe e4fb fded f4fd
000000a0: 0a19 0cf3 0bfc 1a21 d90e e601 0ef2 ffed
000000b0: 0c09 12d5 05fb 0200 0c1e f9e9 fcf0 24fb
000000c0: 19f9 fb0a 7fe2 34f5 0f03 fe06 1409 ffff
000000d0: 10f0 0016 0ef2 f802 daff 0dfc ddfb ed12
000000e0: 07f0 e4f2 1029 1609 0504 fe07 0220 0f2c
000000f0: eff8 f836 d3bd 18e1 fa15 2611 d241 cb1f
