src/gallium/targets/teflon/tests/models/efficientdet/027.tflite (tflite, 42208 bytes, 1 tensors)

efficientnet-lite0/blocks_7/conv2d_1/Conv2D i1 [80, 1, 1, 480]
-20 109 0 51 -41 -48 8 -9
-28 -5 -2 41 26 2 40 -9
75 1 73 -56 -28 -55 -55 -7
47 -33 12 56 42 -4 0 -4
75 8 36 45 -38 -30 -65 79
-9 -21 15 -38 38 -6 -79 7
-52 35 -5 42 12 -25 30 -93
-18 -1 -1 -22 -4 18 -39 8
-12 -5 -58 -15 -9 1 38 -24
-5 -38 11 -3 -9 42 -39 12
12 23 39 -87 -20 -22 -1 -11
-30 15 -47 -17 19 -41 0 9
-18 -29 -44 -123 5 11 27 -51
13 7 14 -6 -13 0 -92 -12
58 12 -33 7 16 -3 -24 -46
-37 -34 2 0 -17 22 77 -18
13 23 -57 -2 -17 37 -70 -10
-17 -38 -6 -23 -3 -14 -30 -14
-45 -20 -24 -7 29 -11 -51 33
16 -13 -26 3 36 0 -1 -26
60 -30 -65 25 -16 68 32 16
-47 -65 -14 65 -53 52 -28 -25
-107 0 -23 -27 -30 -21 29 -65
52 52 31 -1 19 24 -76 9
45 77 34 16 -56 24 -20 -81
-69 39 35 6 30 10 -33 -6
-21 4 -45 -34 20 -49 14 17
0 -11 95 47 -30 76 32 -28
33 0 30 -32 -59 -85 11 4
1 -5 16 -1 -58 -13 -5 123
-96 0 -58 33 -17 -6 48 6
-19 14 -49 -27 30 -14 -35 -21
00000000: ec6d 0033 d7d0 08f7 e4fb fe29 1a02 28f7
00000010: 4b01 49c8 e4c9 c9f9 2fdf 0c38 2afc 00fc
00000020: 4b08 242d dae2 bf4f f7eb 0fda 26fa b107
00000030: cc23 fb2a 0ce7 1ea3 eeff ffea fc12 d908
00000040: f4fb c6f1 f701 26e8 fbda 0bfd f72a d90c
00000050: 0c17 27a9 ecea fff5 e20f d1ef 13d7 0009
00000060: eee3 d485 050b 1bcd 0d07 0efa f300 a4f4
00000070: 3a0c df07 10fd e8d2 dbde 0200 ef16 4dee
00000080: 0d17 c7fe ef25 baf6 efda fae9 fdf2 e2f2
00000090: d3ec e8f9 1df5 cd21 10f3 e603 2400 ffe6
000000a0: 3ce2 bf19 f044 2010 d1bf f241 cb34 e4e7
000000b0: 9500 e9e5 e2eb 1dbf 3434 1fff 1318 b409
000000c0: 2d4d 2210 c818 ecaf bb27 2306 1e0a dffa
000000d0: eb04 d3de 14cf 0e11 00f5 5f2f e24c 20e4
000000e0: 2100 1ee0 c5ab 0b04 01fb 10ff c6f3 fb7b
000000f0: a000 c621 effa 3006 ed0e cfe5 1ef2 ddeb
