src/gallium/targets/teflon/tests/models/efficientdet/055.tflite (tflite, 254864 bytes, 1 tensors)

efficientnet-lite0/blocks_15/conv2d/Conv2D i1 [1152, 1, 1, 192]
00000000: 0a26 21b7 fde1 d5f9 facb d901 c703 d250
00000010: 0e0a 220d dfb7 c00b 0dbf 3add eeec cedb
00000020: 0cc2 5350 d510 e6e8 f622 eb01 0fda a81d
00000030: 361f fbff d69c 0113 3fd8 eaf8 e616 29d4
00000040: 372f 1afe bc28 b801 010c 3647 2153 23f5
00000050: 06f2 0cbf 27e0 2b3d e80e 2c86 14d3 f931
00000060: 6515 0de1 ee06 3332 3814 633e 22a6 de3e
00000070: eaf9 e62d 0b81 16cd 22b5 392f ad19 10cf
00000080: 550a be0b f6fa 0bed 1e31 e407 160f 2647
00000090: 24eb 0fe9 572f d628 ff4e d6f6 1103 030c
000000a0: df22 24f7 1ff8 bb45 ea39 bd00 ef20 0267
000000b0: ebcc dfd1 2b75 fbe3 e1ca b8e2 32e9 03f7
000000c0: f0d0 29da d728 136f 10e3 0f37 bec0 0beb
000000d0: e911 01d2 1f1a f5e8 f7e0 1b2e 0f3c 2ff2
000000e0: 2c35 09f6 beea 1d05 0ff5 f5f8 e735 f9cd
000000f0: 0cef 0a1d c90d 2cf6 bc06 d3e1 09f4 180c
10 38 33 -73 -3 -31 -43 -7
-6 -53 -39 1 -57 3 -46 80
14 10 34 13 -33 -73 -64 11
13 -65 58 -35 -18 -20 -50 -37
12 -62 83 80 -43 16 -26 -24
-10 34 -21 1 15 -38 -88 29
54 31 -5 -1 -42 -100 1 19
63 -40 -22 -8 -26 22 41 -44
55 47 26 -2 -68 40 -72 1
1 12 54 71 33 83 35 -11
6 -14 12 -65 39 -32 43 61
-24 14 44 -122 20 -45 -7 49
101 21 13 -31 -18 6 51 50
56 20 99 62 34 -90 -34 62
-22 -7 -26 45 11 -127 22 -51
34 -75 57 47 -83 25 16 -49
85 10 -66 11 -10 -6 11 -19
30 49 -28 7 22 15 38 71
36 -21 15 -23 87 47 -42 40
-1 78 -42 -10 17 3 3 12
-33 34 36 -9 31 -8 -69 69
-22 57 -67 0 -17 32 2 103
-21 -52 -33 -47 43 117 -5 -29
-31 -54 -72 -30 50 -23 3 -9
-16 -48 41 -38 -41 40 19 111
16 -29 15 55 -66 -64 11 -21
-23 17 1 -46 31 26 -11 -24
-9 -32 27 46 15 60 47 -14
44 53 9 -10 -66 -22 29 5
15 -11 -11 -8 -25 53 -7 -51
12 -17 10 29 -55 13 44 -10
-68 6 -45 -31 9 -12 24 12
