src/gallium/targets/teflon/tests/models/efficientdet/219.tflite (tflite, 3744 bytes, 1 tensors)

box_net/box-2/separable_conv2d_4/depthwise i1 [1, 3, 3, 64]
00000000: fc08 0b07 0602 ffeb fa01 fc00 1410 fb01
00000010: fe0b fdf9 0102 ec3b f50b 0101 0afe 0dfe
00000020: e0f8 0203 05ff 02ff 03fe d2e1 06fb 02ff
00000030: 1efd 02eb 020a b505 0f05 eccc 01ff 0406
00000040: 0509 eafa fc81 fed3 0df4 cefc 8131 7f01
00000050: f0fb 000b 060b 345f fa26 f4f1 8104 0c24
00000060: be3d 03fd 0400 26e8 0706 5cdf f0fb 7ffd
00000070: e7be 81a5 f3f0 810d 1a14 1316 f51b fb16
00000080: 0301 0a07 05ff fca3 fc0b 0300 0d22 0202
00000090: 000a 0005 fbfa df22 020d 01fd 0808 feff
000000a0: d8f2 1102 04fd 09fa 0202 19ec fd00 1e05
000000b0: fbfe 02e5 0006 b6fe 0003 f3cf ff01 fcf6
000000c0: f303 f003 0800 f806 81fd 0100 022c 0414
000000d0: 06fd fd0a 1200 7f5d 81ef f104 0409 7f0c
000000e0: e61b fd11 fd0c 4800 010c d381 fa09 dd0a
000000f0: efa3 ff01 e605 12e6 7f0e f799 40f2 f83f
-4 8 11 7 6 2 -1 -21
-6 1 -4 0 20 16 -5 1
-2 11 -3 -7 1 2 -20 59
-11 11 1 1 10 -2 13 -2
-32 -8 2 3 5 -1 2 -1
3 -2 -46 -31 6 -5 2 -1
30 -3 2 -21 2 10 -75 5
15 5 -20 -52 1 -1 4 6
5 9 -22 -6 -4 -127 -2 -45
13 -12 -50 -4 -127 49 127 1
-16 -5 0 11 6 11 52 95
-6 38 -12 -15 -127 4 12 36
-66 61 3 -3 4 0 38 -24
7 6 92 -33 -16 -5 127 -3
-25 -66 -127 -91 -13 -16 -127 13
26 20 19 22 -11 27 -5 22
3 1 10 7 5 -1 -4 -93
-4 11 3 0 13 34 2 2
0 10 0 5 -5 -6 -33 34
2 13 1 -3 8 8 -2 -1
-40 -14 17 2 4 -3 9 -6
2 2 25 -20 -3 0 30 5
-5 -2 2 -27 0 6 -74 -2
0 3 -13 -49 -1 1 -4 -10
-13 3 -16 3 8 0 -8 6
-127 -3 1 0 2 44 4 20
6 -3 -3 10 18 0 127 93
-127 -17 -15 4 4 9 127 12
-26 27 -3 17 -3 12 72 0
1 12 -45 -127 -6 9 -35 10
-17 -93 -1 1 -26 5 18 -26
127 14 -9 -103 64 -14 -8 63
