src/gallium/targets/teflon/tests/models/efficientdet/236.tflite (tflite, 7344 bytes, 1 tensors)

box_net/box-0/separable_conv2d_4 i1 [64, 1, 1, 64]
000000 09 10 2c 0f 3c 1d cf f7 08 1f de 17 0b ef f2 f8
       9 16 44 15 60 29 -49 -9 8 31 -34 23 11 -17 -14 -8
000010 f8 22 f8 29 03 f1 81 f0 f7 fa 05 1f f2 f2 0c d3
       -8 34 -8 41 3 -15 -127 -16 -9 -6 5 31 -14 -14 12 -45
000020 ff 1e e4 2b 0c ea e5 08 ee 01 e2 11 ff e9 1e 0f
       -1 30 -28 43 12 -22 -27 8 -18 1 -30 17 -1 -23 30 15
000030 cb c7 ed ce fb fa 1a f8 8c f4 ea bb 29 ff 0c 08
       -53 -57 -19 -50 -5 -6 26 -8 -116 -12 -22 -69 41 -1 12 8
000040 f1 f6 d0 f4 ef 03 26 e6 04 ce a1 14 81 dd 03 01
       -15 -10 -48 -12 -17 3 38 -26 4 -50 -95 20 -127 -35 3 1
000050 05 08 06 08 d8 df fd fc fc ed 03 2a f3 e7 f6 16
       5 8 6 8 -40 -33 -3 -4 -4 -19 3 42 -13 -25 -10 22
000060 f0 08 17 39 19 b0 0e 22 0a f2 dc 08 d0 fc 19 fb
       -16 8 23 57 25 -80 14 34 10 -14 -36 8 -48 -4 25 -5
000070 f7 de a2 fc 03 12 37 f5 ec f8 00 12 07 de 08 fc
       -9 -34 -94 -4 3 18 55 -11 -20 -8 0 18 7 -34 8 -4
000080 fc f8 6c f4 e5 17 f5 3c 13 03 de 24 44 e9 46 f1
       -4 -8 108 -12 -27 23 -11 60 19 3 -34 36 68 -23 70 -15
000090 01 c9 e4 43 17 fc eb f7 02 01 e1 e0 fd 04 06 e8
       1 -55 -28 67 23 -4 -21 -9 2 1 -31 -32 -3 4 6 -24
0000a0 db fd 00 12 19 55 2f 30 ff cd 0b 20 81 ee 0e f3
       -37 -3 0 18 25 85 47 48 -1 -51 11 32 -127 -18 14 -13
0000b0 04 c9 b7 fc eb 05 02 d0 fd 1f fa e6 41 55 12 f1
       4 -55 -73 -4 -21 5 2 -48 -3 31 -6 -26 65 85 18 -15
0000c0 f1 bc f2 fe f9 eb c1 0c 0c dc d8 f9 e9 fb fa df
       -15 -68 -14 -2 -7 -21 -63 12 12 -36 -40 -7 -23 -5 -6 -33
0000d0 fe ea ed 14 e3 ca f6 ea 29 d9 fb 2a f3 08 fe 1b
       -2 -22 -19 20 -29 -54 -10 -22 41 -39 -5 42 -13 8 -2 27
0000e0 d3 81 f6 25 2a dd ff cb df ee ff b5 f8 ed f0 05
       -45 -127 -10 37 42 -35 -1 -53 -33 -18 -1 -75 -8 -19 -16 5
0000f0 01 c1 03 ee f7 f6 c8 df 19 d4 11 13 1b fc f9 ed
       1 -63 3 -18 -9 -10 -56 -33 25 -44 17 19 27 -4 -7 -19
