src/gallium/targets/teflon/tests/models/movenetlightning/023.tflite (tflite, 13952 bytes, 1 tensors)

center_net_mobile_net_v2fpn_feature_extractor/model_1/model/block_5_expand/Conv2D i1 [192, 1, 1, 32]
-59 5 34 127 20 6 12 8
28 27 -76 -7 -15 -4 -16 -50
-18 -20 -17 36 -9 -17 3 1
-23 -24 40 -11 -53 -31 -9 -43
-17 0 43 44 -40 21 29 13
33 48 -54 -5 23 73 40 -33
32 -127 -33 37 41 32 80 -36
-18 -5 10 19 97 42 -9 15
-4 64 28 16 3 31 -12 74
30 -26 110 -24 -64 10 6 -18
94 26 20 67 -33 -127 -57 13
-21 -110 11 79 -22 84 -46 21
-20 63 21 -14 10 -41 -45 -1
22 5 93 -23 -48 -106 -53 -123
-127 60 -9 92 -54 -59 -49 20
-17 103 50 -12 -46 -111 -7 53
-4 -3 1 -105 0 -16 31 20
-2 99 -111 23 -76 10 -11 127
79 28 -6 77 38 5 -78 -52
-79 38 24 20 17 -53 52 20
56 56 -127 21 -106 -20 19 47
110 -23 -112 -1 -86 -4 -25 -25
-44 -44 -3 -35 52 61 18 27
36 -49 57 44 24 10 5 -23
-19 26 -23 20 84 -76 -45 24
-109 -12 -36 -91 95 127 84 79
24 -79 82 -80 -36 50 -9 15
-7 27 62 -20 -2 40 -28 24
-9 50 18 -123 -44 13 -15 68
-78 24 -6 -4 51 51 -99 -51
-97 122 -49 -27 -51 64 100 5
-127 63 -73 -17 58 5 -61 30
00000000: c505 227f 1406 0c08 1c1b b4f9 f1fc f0ce
00000010: eeec ef24 f7ef 0301 e9e8 28f5 cbe1 f7d5
00000020: ef00 2b2c d815 1d0d 2130 cafb 1749 28df
00000030: 2081 df25 2920 50dc eefb 0a13 612a f70f
00000040: fc40 1c10 031f f44a 1ee6 6ee8 c00a 06ee
00000050: 5e1a 1443 df81 c70d eb92 0b4f ea54 d215
00000060: ec3f 15f2 0ad7 d3ff 1605 5de9 d096 cb85
00000070: 813c f75c cac5 cf14 ef67 32f4 d291 f935
00000080: fcfd 0197 00f0 1f14 fe63 9117 b40a f57f
00000090: 4f1c fa4d 2605 b2cc b126 1814 11cb 3414
000000a0: 3838 8115 96ec 132f 6ee9 90ff aafc e7e7
000000b0: d4d4 fddd 343d 121b 24cf 392c 180a 05e9
000000c0: ed1a e914 54b4 d318 93f4 dca5 5f7f 544f
000000d0: 18b1 52b0 dc32 f70f f91b 3eec fe28 e418
000000e0: f732 1285 d40d f144 b218 fafc 3333 9dcd
000000f0: 9f7a cfe5 cd40 6405 813f b7ef 3a05 c31e
