src/gallium/targets/teflon/tests/models/movenetlightning/029.tflite (tflite, 10096 bytes, 1 tensors)

center_net_mobile_net_v2fpn_feature_extractor/model_1/model/block_6_depthwise_BN/FusedBatchNormV3;center_net_mobile_net_v2fpn_feature_extractor/model_1/model/block_6_depthwise/depthwise i1 [1, 3, 3, 192]
0	0xa3	-93
1	0x81	-127
2	0x2b	43
3	0x36	54
4	0x4e	78
5	0x99	-103
6	0x25	37
7	0x55	85
8	0x41	65
9	0x81	-127
10	0xca	-54
11	0x39	57
12	0x56	86
13	0xba	-70
14	0xda	-38
15	0x8a	-118
16	0x3a	58
17	0x50	80
18	0xb5	-75
19	0x38	56
20	0xab	-85
21	0xaf	-81
22	0xe4	-28
23	0x64	100
24	0x9b	-101
25	0xb5	-75
26	0x65	101
27	0x44	68
28	0xa7	-89
29	0xa6	-90
30	0x49	73
31	0x4f	79
32	0x52	82
33	0x55	85
34	0x43	67
35	0x60	96
36	0x67	103
37	0xa6	-90
38	0xab	-85
39	0xb7	-73
40	0xa5	-91
41	0xac	-84
42	0x44	68
43	0x47	71
44	0x41	65
45	0x3f	63
46	0x6a	106
47	0x32	50
48	0x5c	92
49	0x55	85
50	0x9d	-99
51	0x4b	75
52	0x54	84
53	0xa0	-96
54	0x9b	-101
55	0x98	-104
56	0x7e	126
57	0xc3	-61
58	0x6e	110
59	0x34	52
60	0x4a	74
61	0xca	-54
62	0x95	-107
63	0xc2	-62
64	0x8b	-117
65	0xa8	-88
66	0x3c	60
67	0xaf	-81
68	0x3d	61
69	0xb7	-73
70	0x55	85
71	0x5e	94
72	0x40	64
73	0x33	51
74	0xd6	-42
75	0x94	-108
76	0x5e	94
77	0xce	-50
78	0x60	96
79	0xa6	-90
80	0x8e	-114
81	0xbd	-67
82	0xc0	-64
83	0x65	101
84	0x99	-103
85	0x60	96
86	0x81	-127
87	0xbd	-67
88	0x9d	-99
89	0x98	-104
90	0xa7	-89
91	0x5e	94
92	0x66	102
93	0x4b	75
94	0x65	101
95	0xca	-54
96	0x85	-123
97	0xb2	-78
98	0xb1	-79
99	0xab	-85
100	0x42	66
101	0x4c	76
102	0x48	72
103	0xbd	-67
104	0xc5	-59
105	0x48	72
106	0xb9	-71
107	0x41	65
108	0x51	81
109	0x66	102
110	0x62	98
111	0x49	73
112	0x45	69
113	0x33	51
114	0x40	64
115	0x8d	-115
116	0x3d	61
117	0x3f	63
118	0xae	-82
119	0xbb	-69
120	0x29	41
121	0xa9	-87
122	0xb7	-73
123	0xb5	-75
124	0x43	67
125	0x0d	13
126	0x50	80
127	0xa5	-91
128	0x9c	-100
129	0xbd	-67
130	0x45	69
131	0x24	36
132	0x9f	-97
133	0xcc	-52
134	0xb7	-73
135	0xce	-50
136	0xba	-70
137	0x58	88
138	0x17	23
139	0x39	57
140	0x35	53
141	0xb0	-80
142	0x9e	-98
143	0x40	64
144	0xad	-83
145	0x4a	74
146	0x94	-108
147	0xbd	-67
148	0xb6	-74
149	0xbd	-67
150	0x43	67
151	0x38	56
152	0x38	56
153	0xb2	-78
154	0xc3	-61
155	0x7f	127
156	0xa1	-95
157	0x67	103
158	0x41	65
159	0xa9	-87
160	0xa6	-90
161	0xb3	-77
162	0x9b	-101
163	0x3d	61
164	0x2f	47
165	0x21	33
166	0xa1	-95
167	0x2a	42
168	0x97	-105
169	0x4d	77
170	0x9a	-102
171	0xc7	-57
172	0xd5	-43
173	0xb6	-74
174	0x8c	-116
175	0xab	-85
176	0x93	-109
177	0x4b	75
178	0x81	-127
179	0xc2	-62
180	0x34	52
181	0xbd	-67
182	0xa6	-90
183	0xd2	-46
184	0x7f	127
185	0x5c	92
186	0x4f	79
187	0x67	103
188	0xb1	-79
189	0x32	50
190	0x8e	-114
191	0xa2	-94
192	0x87	-121
193	0x0f	15
194	0x51	81
195	0x95	-107
196	0xd1	-47
197	0x81	-127
198	0x41	65
199	0x66	102
200	0x5b	91
201	0x87	-121
202	0xba	-70
203	0x66	102
204	0x6c	108
205	0x9e	-98
206	0xd0	-48
207	0x95	-107
208	0x59	89
209	0x6b	107
210	0xa5	-91
211	0x49	73
212	0x81	-127
213	0x9b	-101
214	0x81	-127
215	0x7d	125
216	0x87	-121
217	0x9d	-99
218	0x7e	126
219	0x52	82
220	0x9d	-99
221	0x81	-127
222	0x5d	93
223	0x64	100
224	0x5f	95
225	0x67	103
226	0x5b	91
227	0x75	117
228	0xc6	-58
229	0x83	-125
230	0x89	-119
231	0xc5	-59
232	0x81	-127
233	0x42	66
234	0x67	103
235	0x58	88
236	0x4a	74
237	0x65	101
238	0x7f	127
239	0x5a	90
240	0x70	112
241	0x78	120
242	0x81	-127
243	0x66	102
244	0x6d	109
245	0x81	-127
246	0x48	72
247	0x84	-124
248	0x7f	127
249	0xad	-83
250	0x7f	127
251	0x5f	95
252	0x6b	107
253	0xa6	-90
254	0x81	-127
255	0xa6	-90
