src/gallium/targets/teflon/tests/models/movenetlightning/045.tflite (tflite, 17216 bytes, 1 tensors)

center_net_mobile_net_v2fpn_feature_extractor/model_1/model/block_10_depthwise_BN/FusedBatchNormV3;center_net_mobile_net_v2fpn_feature_extractor/model_1/model/block_10_depthwise/depthwise i1 [1, 3, 3, 384]
-127 -9 -6 -25 101 120 -25 83
78 -116 54 105 49 58 -53 17
3 -71 36 40 -97 -56 -5 5
-113 47 103 73 -88 36 66 -69
84 -86 0 -34 -11 -35 18 -20
-25 -39 -9 -19 -2 -72 -61 60
37 26 127 11 33 -8 82 -89
27 -58 31 10 -99 14 75 14
-8 7 15 -2 26 -60 29 -12
13 -21 -78 -12 -38 -37 -127 10
57 32 7 -65 5 36 -5 5
16 -9 70 -10 -42 -9 -127 -7
-96 16 -22 51 0 5 -110 -61
23 -76 58 -49 -26 -75 72 104
30 61 -54 66 -7 -87 0 -10
-58 -55 9 85 101 -119 -50 -8
-6 96 -19 -1 0 -26 127 -6
-62 30 -24 -101 80 -127 47 -106
-16 3 -65 61 -29 -36 37 -9
32 6 16 10 -6 32 8 127
59 -19 -17 -48 -79 -18 101 28
4 -91 83 50 53 -17 -9 71
17 99 -75 23 74 -88 41 -58
-69 62 13 -4 37 10 55 -1
9 1 6 -88 -15 58 -52 5
-6 -31 -47 -41 -10 -106 -62 -35
36 65 -13 38 -64 37 -41 88
3 -67 -64 55 -84 0 60 49
-40 67 -94 47 -17 -3 -6 127
-69 -44 -53 87 108 72 -8 -11
75 116 -64 49 -9 8 103 2
14 43 4 86 24 -106 -7 -4
00000000: 81f7 fae7 6578 e753 4e8c 3669 313a cb11
00000010: 03b9 2428 9fc8 fb05 8f2f 6749 a824 42bb
00000020: 54aa 00de f5dd 12ec e7d9 f7ed feb8 c33c
00000030: 251a 7f0b 21f8 52a7 1bc6 1f0a 9d0e 4b0e
00000040: f807 0ffe 1ac4 1df4 0deb b2f4 dadb 810a
00000050: 3920 07bf 0524 fb05 10f7 46f6 d6f7 81f9
00000060: a010 ea33 0005 92c3 17b4 3acf e6b5 4868
00000070: 1e3d ca42 f9a9 00f6 c6c9 0955 6589 cef8
00000080: fa60 edff 00e6 7ffa c21e e89b 5081 2f96
00000090: f003 bf3d e3dc 25f7 2006 100a fa20 087f
000000a0: 3bed efd0 b1ee 651c 04a5 5332 35ef f747
000000b0: 1163 b517 4aa8 29c6 bb3e 0dfc 250a 37ff
000000c0: 0901 06a8 f13a cc05 fae1 d1d7 f696 c2dd
000000d0: 2441 f326 c025 d758 03bd c037 ac00 3c31
000000e0: d843 a22f effd fa7f bbd4 cb57 6c48 f8f5
000000f0: 4b74 c031 f708 6702 0e2b 0456 1896 f9fc
