src/gallium/targets/teflon/tests/models/movenetlightning/053.tflite (tflite, 60896 bytes, 1 tensors)

center_net_mobile_net_v2fpn_feature_extractor/model_1/model/block_12_project/Conv2D i1 [96, 1, 1, 576]
24 -13 5 -9 -3 -22 -22 12
-87 21 41 77 30 28 7 -33
12 -2 -22 -6 14 17 -13 -28
-56 -31 -47 8 -8 -54 -26 63
75 2 0 -107 16 25 29 -7
21 35 -16 -6 -12 -1 -15 2
34 -58 1 -47 65 38 59 -5
2 15 -11 -26 -8 14 31 0
-37 1 57 -41 -3 -108 12 11
-59 -5 18 12 -38 37 -28 23
-9 -13 37 10 7 -13 -21 13
-1 -5 -46 -27 -21 -41 62 -70
72 -6 -43 -2 -24 12 40 -4
19 8 -30 -63 14 -3 -64 31
-105 -23 76 40 -30 26 0 -5
3 -1 -12 2 -4 21 -57 29
-26 6 20 56 -85 61 11 35
62 54 -12 3 -28 -1 32 8
-25 -5 -37 -7 -63 24 -51 -70
-57 -36 -24 42 17 -32 -24 70
-52 21 17 -11 43 -17 -4 -13
12 25 6 -11 -9 9 2 10
51 -58 -45 -23 -13 -15 -10 41
-34 -38 7 -15 26 -4 -41 -12
79 -34 17 -13 22 -47 13 -42
-19 -36 29 40 83 -23 -3 0
15 -3 5 -44 -27 77 -9 40
-43 55 -30 34 -34 47 -24 15
59 -32 16 -23 -17 -10 -28 16
-23 -9 19 29 37 31 56 -22
-3 -6 15 32 -18 -18 60 -9
10 -30 -43 5 48 3 -75 -3
00000000: 18f3 05f7 fdea ea0c a915 294d 1e1c 07df
00000010: 0cfe eafa 0e11 f3e4 c8e1 d108 f8ca e63f
00000020: 4b02 0095 1019 1df9 1523 f0fa f4ff f102
00000030: 22c6 01d1 4126 3bfb 020f f5e6 f80e 1f00
00000040: db01 39d7 fd94 0c0b c5fb 120c da25 e417
00000050: f7f3 250a 07f3 eb0d fffb d2e5 ebd7 3eba
00000060: 48fa d5fe e80c 28fc 1308 e2c1 0efd c01f
00000070: 97e9 4c28 e21a 00fb 03ff f402 fc15 c71d
00000080: e606 1438 ab3d 0b23 3e36 f403 e4ff 2008
00000090: e7fb dbf9 c118 cdba c7dc e82a 11e0 e846
000000a0: cc15 11f5 2bef fcf3 0c19 06f5 f709 020a
000000b0: 33c6 d3e9 f3f1 f629 deda 07f1 1afc d7f4
000000c0: 4fde 11f3 16d1 0dd6 eddc 1d28 53e9 fd00
000000d0: 0ffd 05d4 e54d f728 d537 e222 de2f e80f
000000e0: 3be0 10e9 eff6 e410 e9f7 131d 251f 38ea
000000f0: fdfa 0f20 eeee 3cf7 0ae2 d505 3003 b5fd
