src/gallium/targets/teflon/tests/models/movenetlightning/058.tflite (tflite, 183296 bytes, 1 tensors)

center_net_mobile_net_v2fpn_feature_extractor/model_1/model/block_14_expand/Conv2D i1 [960, 1, 1, 160]
0	0x14	20
1	0xd3	-45
2	0xfc	-4
3	0x2e	46
4	0xf0	-16
5	0x00	0
6	0xce	-50
7	0xe1	-31
8	0x2d	45
9	0x04	4
10	0x11	17
11	0xbf	-65
12	0x95	-107
13	0xdb	-37
14	0x5a	90
15	0x09	9
16	0xf1	-15
17	0x29	41
18	0xec	-20
19	0x15	21
20	0x24	36
21	0xe8	-24
22	0x5a	90
23	0x34	52
24	0x15	21
25	0xf0	-16
26	0x5b	91
27	0x14	20
28	0xbf	-65
29	0xea	-22
30	0xd7	-41
31	0x59	89
32	0x2c	44
33	0x07	7
34	0x0d	13
35	0xce	-50
36	0xec	-20
37	0x7f	127
38	0x0b	11
39	0x1d	29
40	0xe7	-25
41	0xfa	-6
42	0xf3	-13
43	0xf2	-14
44	0xe5	-27
45	0x27	39
46	0x4c	76
47	0x3f	63
48	0xe3	-29
49	0xe4	-28
50	0xbf	-65
51	0x18	24
52	0xfa	-6
53	0xcc	-52
54	0xf9	-7
55	0x24	36
56	0x1a	26
57	0x22	34
58	0xd6	-42
59	0xf9	-7
60	0xf1	-15
61	0x24	36
62	0xee	-18
63	0x16	22
64	0x07	7
65	0x1a	26
66	0x36	54
67	0x19	25
68	0x0e	14
69	0xdd	-35
70	0xfa	-6
71	0x13	19
72	0xea	-22
73	0xdb	-37
74	0x49	73
75	0x0e	14
76	0x2b	43
77	0xe1	-31
78	0x0a	10
79	0xd6	-42
80	0xb1	-79
81	0x0d	13
82	0x02	2
83	0x42	66
84	0xd9	-39
85	0xba	-70
86	0x0a	10
87	0x3e	62
88	0xd2	-46
89	0xbb	-69
90	0xfd	-3
91	0xfa	-6
92	0x27	39
93	0x90	-112
94	0xc9	-55
95	0x03	3
96	0x2f	47
97	0x17	23
98	0x1d	29
99	0xfc	-4
100	0x08	8
101	0x05	5
102	0xaa	-86
103	0x12	18
104	0xb5	-75
105	0x2d	45
106	0x26	38
107	0x39	57
108	0x3d	61
109	0xf9	-7
110	0x3f	63
111	0x09	9
112	0xa6	-90
113	0x15	21
114	0x0f	15
115	0x0d	13
116	0xe7	-25
117	0xe8	-24
118	0xff	-1
119	0x14	20
120	0x3d	61
121	0xbc	-68
122	0x47	71
123	0x1c	28
124	0xf9	-7
125	0xae	-82
126	0x22	34
127	0xd4	-44
128	0xfc	-4
129	0xdc	-36
130	0xd3	-45
131	0xcb	-53
132	0x3f	63
133	0xf6	-10
134	0xbf	-65
135	0xe3	-29
136	0xf4	-12
137	0x0c	12
138	0xf5	-11
139	0xb6	-74
140	0xeb	-21
141	0x21	33
142	0xf1	-15
143	0x17	23
144	0xaa	-86
145	0x56	86
146	0xe8	-24
147	0x07	7
148	0x0d	13
149	0x23	35
150	0xf5	-11
151	0xe0	-32
152	0x55	85
153	0x19	25
154	0x0b	11
155	0x3a	58
156	0xb9	-71
157	0xd5	-43
158	0xf0	-16
159	0x29	41
160	0xcf	-49
161	0xda	-38
162	0x0c	12
163	0xfd	-3
164	0x34	52
165	0x2f	47
166	0xc1	-63
167	0xe3	-29
168	0x27	39
169	0xee	-18
170	0x1f	31
171	0x10	16
172	0xfc	-4
173	0x0a	10
174	0x16	22
175	0xce	-50
176	0xde	-34
177	0xc2	-62
178	0xde	-34
179	0xef	-17
180	0x20	32
181	0x32	50
182	0x29	41
183	0x2c	44
184	0x28	40
185	0xde	-34
186	0x81	-127
187	0xf6	-10
188	0xf5	-11
189	0xf5	-11
190	0xb8	-72
191	0xec	-20
192	0xca	-54
193	0xda	-38
194	0x3c	60
195	0x1c	28
196	0xc9	-55
197	0xde	-34
198	0xf6	-10
199	0x18	24
200	0xec	-20
201	0x15	21
202	0xdb	-37
203	0x42	66
204	0xdd	-35
205	0xc9	-55
206	0x00	0
207	0xf3	-13
208	0xe9	-23
209	0xdf	-33
210	0xfe	-2
211	0x24	36
212	0x16	22
213	0x17	23
214	0xe2	-30
215	0xd7	-41
216	0xe2	-30
217	0x22	34
218	0xc9	-55
219	0xef	-17
220	0x12	18
221	0x3f	63
222	0x03	3
223	0xdb	-37
224	0x4a	74
225	0x04	4
226	0xae	-82
227	0x23	35
228	0x18	24
229	0xd9	-39
230	0x27	39
231	0x0a	10
232	0xef	-17
233	0xde	-34
234	0x0e	14
235	0x1f	31
236	0x0b	11
237	0x0e	14
238	0xec	-20
239	0xca	-54
240	0x2d	45
241	0xe8	-24
242	0x15	21
243	0xe2	-30
244	0xf1	-15
245	0xed	-19
246	0x15	21
247	0xf9	-7
248	0x16	22
249	0x72	114
250	0xba	-70
251	0xb9	-71
252	0x4f	79
253	0xdf	-33
254	0xe4	-28
255	0x1d	29
