src/gallium/targets/teflon/tests/models/movenetlightning/111.tflite (tflite, 6336 bytes, 1 tensors)

kpt_regress_0/conv2d_6/Conv2D i1 [34, 1, 1, 96]
0	0x09	9
1	0xc6	-58
2	0x08	8
3	0xf1	-15
4	0x06	6
5	0xf9	-7
6	0x03	3
7	0x00	0
8	0xed	-19
9	0xe7	-25
10	0xff	-1
11	0xe6	-26
12	0xdf	-33
13	0x00	0
14	0x14	20
15	0xf0	-16
16	0xf0	-16
17	0x01	1
18	0x15	21
19	0x09	9
20	0xfe	-2
21	0x0f	15
22	0xfc	-4
23	0x52	82
24	0x46	70
25	0x06	6
26	0x0c	12
27	0x08	8
28	0xef	-17
29	0xfe	-2
30	0xed	-19
31	0xfc	-4
32	0xfe	-2
33	0xd2	-46
34	0x0f	15
35	0xfe	-2
36	0xfd	-3
37	0xf9	-7
38	0xfc	-4
39	0x01	1
40	0x11	17
41	0xd3	-45
42	0xf2	-14
43	0x13	19
44	0x09	9
45	0x0a	10
46	0x05	5
47	0x14	20
48	0x0b	11
49	0xf6	-10
50	0x12	18
51	0x06	6
52	0x0e	14
53	0x06	6
54	0x04	4
55	0xfe	-2
56	0x26	38
57	0x0c	12
58	0x13	19
59	0xf6	-10
60	0x29	41
61	0xd1	-47
62	0x05	5
63	0x0b	11
64	0xf9	-7
65	0x0d	13
66	0x13	19
67	0x00	0
68	0x81	-127
69	0xff	-1
70	0xd3	-45
71	0xee	-18
72	0xfc	-4
73	0x0f	15
74	0x10	16
75	0xe0	-32
76	0x09	9
77	0x0d	13
78	0xf7	-9
79	0xf6	-10
80	0x06	6
81	0x07	7
82	0xf0	-16
83	0x15	21
84	0x06	6
85	0x1a	26
86	0xfe	-2
87	0xf5	-11
88	0x41	65
89	0x07	7
90	0xfc	-4
91	0x0a	10
92	0x01	1
93	0x0f	15
94	0xf6	-10
95	0x05	5
96	0xf6	-10
97	0xff	-1
98	0x17	23
99	0x03	3
100	0xf8	-8
101	0x12	18
102	0xc3	-61
103	0xed	-19
104	0xf2	-14
105	0xe8	-24
106	0xf3	-13
107	0xfc	-4
108	0x73	115
109	0x14	20
110	0x15	21
111	0xe9	-23
112	0x0f	15
113	0x08	8
114	0xf2	-14
115	0x1c	28
116	0x02	2
117	0xf4	-12
118	0x18	24
119	0x20	32
120	0x06	6
121	0x13	19
122	0xfc	-4
123	0xef	-17
124	0x02	2
125	0x00	0
126	0xff	-1
127	0x06	6
128	0x0a	10
129	0x82	-126
130	0x03	3
131	0xff	-1
132	0xf3	-13
133	0x06	6
134	0x02	2
135	0x50	80
136	0xb1	-79
137	0x2a	42
138	0x00	0
139	0xf1	-15
140	0x0f	15
141	0xf6	-10
142	0x1d	29
143	0x07	7
144	0x1a	26
145	0xe2	-30
146	0x08	8
147	0x00	0
148	0x95	-107
149	0x19	25
150	0x02	2
151	0xe9	-23
152	0x02	2
153	0x07	7
154	0x01	1
155	0xf7	-9
156	0x60	96
157	0x04	4
158	0xdc	-36
159	0xe7	-25
160	0xf7	-9
161	0xfe	-2
162	0x19	25
163	0xeb	-21
164	0xeb	-21
165	0xf7	-9
166	0xfc	-4
167	0x01	1
168	0x11	17
169	0xe7	-25
170	0xca	-54
171	0xf8	-8
172	0xfd	-3
173	0x01	1
174	0xf5	-11
175	0x00	0
176	0x6a	106
177	0x14	20
178	0x0e	14
179	0x81	-127
180	0xfb	-5
181	0xfd	-3
182	0xfc	-4
183	0x05	5
184	0x05	5
185	0x22	34
186	0x0e	14
187	0xfa	-6
188	0x5c	92
189	0x03	3
190	0xe4	-28
191	0x00	0
192	0x0a	10
193	0xc4	-60
194	0x0b	11
195	0xf7	-9
196	0x05	5
197	0xf8	-8
198	0x04	4
199	0xfd	-3
200	0xe9	-23
201	0xec	-20
202	0xfa	-6
203	0xe9	-23
204	0xd9	-39
205	0xff	-1
206	0x12	18
207	0xf4	-12
208	0xf1	-15
209	0x02	2
210	0x08	8
211	0x13	19
212	0xfd	-3
213	0x0c	12
214	0x00	0
215	0x55	85
216	0x49	73
217	0x03	3
218	0x07	7
219	0x04	4
220	0xfb	-5
221	0x02	2
222	0xec	-20
223	0xf9	-7
224	0x02	2
225	0xc8	-56
226	0x0a	10
227	0xf9	-7
228	0xf7	-9
229	0xf7	-9
230	0xfe	-2
231	0xfd	-3
232	0x0e	14
233	0xd6	-42
234	0xea	-22
235	0x0d	13
236	0x0a	10
237	0x03	3
238	0x05	5
239	0x0c	12
240	0x06	6
241	0xf8	-8
242	0x10	16
243	0x04	4
244	0x05	5
245	0x20	32
246	0x03	3
247	0xfe	-2
248	0x1e	30
249	0x0d	13
250	0x13	19
251	0xf7	-9
252	0x23	35
253	0xd2	-46
254	0x00	0
255	0x08	8
