src/gallium/targets/teflon/tests/models/movenetlightning/119.tflite (tflite, 3440 bytes, 1 tensors)

strided_slice_4 i1 [48, 48, 1] scale=0.18431373 zero_point=-128
0	0x80	0.0
1	0x85	0.92156863
2	0x8b	2.027451
3	0x90	2.9490197
4	0x96	4.054902
5	0x9b	4.9764705
6	0xa1	6.082353
7	0xa6	7.0039215
8	0xab	7.9254904
9	0xb1	9.031373
10	0xb6	9.952941
11	0xbc	11.058824
12	0xc1	11.980392
13	0xc7	13.086275
14	0xcc	14.007843
15	0xd1	14.929412
16	0xd7	16.035294
17	0xdc	16.956863
18	0xe2	18.062746
19	0xe7	18.984314
20	0xed	20.090197
21	0xf2	21.011765
22	0xf7	21.933334
23	0xfd	23.039217
24	0x02	23.960785
25	0x08	25.066668
26	0x0d	25.988235
27	0x12	26.909805
28	0x18	28.015686
29	0x1d	28.937256
30	0x23	30.043139
31	0x28	30.964706
32	0x2e	32.070587
33	0x33	32.992157
34	0x38	33.913727
35	0x3e	35.019608
36	0x43	35.941177
37	0x49	37.04706
38	0x4e	37.968628
39	0x54	39.074512
40	0x59	39.99608
41	0x5e	40.91765
42	0x64	42.02353
43	0x69	42.9451
44	0x6f	44.05098
45	0x74	44.97255
46	0x7a	46.078434
47	0x7f	47.0
48	0x80	0.0
49	0x85	0.92156863
50	0x8b	2.027451
51	0x90	2.9490197
52	0x96	4.054902
53	0x9b	4.9764705
54	0xa1	6.082353
55	0xa6	7.0039215
56	0xab	7.9254904
57	0xb1	9.031373
58	0xb6	9.952941
59	0xbc	11.058824
60	0xc1	11.980392
61	0xc7	13.086275
62	0xcc	14.007843
63	0xd1	14.929412
64	0xd7	16.035294
65	0xdc	16.956863
66	0xe2	18.062746
67	0xe7	18.984314
68	0xed	20.090197
69	0xf2	21.011765
70	0xf7	21.933334
71	0xfd	23.039217
72	0x02	23.960785
73	0x08	25.066668
74	0x0d	25.988235
75	0x12	26.909805
76	0x18	28.015686
77	0x1d	28.937256
78	0x23	30.043139
79	0x28	30.964706
80	0x2e	32.070587
81	0x33	32.992157
82	0x38	33.913727
83	0x3e	35.019608
84	0x43	35.941177
85	0x49	37.04706
86	0x4e	37.968628
87	0x54	39.074512
88	0x59	39.99608
89	0x5e	40.91765
90	0x64	42.02353
91	0x69	42.9451
92	0x6f	44.05098
93	0x74	44.97255
94	0x7a	46.078434
95	0x7f	47.0
96	0x80	0.0
97	0x85	0.92156863
98	0x8b	2.027451
99	0x90	2.9490197
100	0x96	4.054902
101	0x9b	4.9764705
102	0xa1	6.082353
103	0xa6	7.0039215
104	0xab	7.9254904
105	0xb1	9.031373
106	0xb6	9.952941
107	0xbc	11.058824
108	0xc1	11.980392
109	0xc7	13.086275
110	0xcc	14.007843
111	0xd1	14.929412
112	0xd7	16.035294
113	0xdc	16.956863
114	0xe2	18.062746
115	0xe7	18.984314
116	0xed	20.090197
117	0xf2	21.011765
118	0xf7	21.933334
119	0xfd	23.039217
120	0x02	23.960785
121	0x08	25.066668
122	0x0d	25.988235
123	0x12	26.909805
124	0x18	28.015686
125	0x1d	28.937256
126	0x23	30.043139
127	0x28	30.964706
128	0x2e	32.070587
129	0x33	32.992157
130	0x38	33.913727
131	0x3e	35.019608
132	0x43	35.941177
133	0x49	37.04706
134	0x4e	37.968628
135	0x54	39.074512
136	0x59	39.99608
137	0x5e	40.91765
138	0x64	42.02353
139	0x69	42.9451
140	0x6f	44.05098
141	0x74	44.97255
142	0x7a	46.078434
143	0x7f	47.0
144	0x80	0.0
145	0x85	0.92156863
146	0x8b	2.027451
147	0x90	2.9490197
148	0x96	4.054902
149	0x9b	4.9764705
150	0xa1	6.082353
151	0xa6	7.0039215
152	0xab	7.9254904
153	0xb1	9.031373
154	0xb6	9.952941
155	0xbc	11.058824
156	0xc1	11.980392
157	0xc7	13.086275
158	0xcc	14.007843
159	0xd1	14.929412
160	0xd7	16.035294
161	0xdc	16.956863
162	0xe2	18.062746
163	0xe7	18.984314
164	0xed	20.090197
165	0xf2	21.011765
166	0xf7	21.933334
167	0xfd	23.039217
168	0x02	23.960785
169	0x08	25.066668
170	0x0d	25.988235
171	0x12	26.909805
172	0x18	28.015686
173	0x1d	28.937256
174	0x23	30.043139
175	0x28	30.964706
176	0x2e	32.070587
177	0x33	32.992157
178	0x38	33.913727
179	0x3e	35.019608
180	0x43	35.941177
181	0x49	37.04706
182	0x4e	37.968628
183	0x54	39.074512
184	0x59	39.99608
185	0x5e	40.91765
186	0x64	42.02353
187	0x69	42.9451
188	0x6f	44.05098
189	0x74	44.97255
190	0x7a	46.078434
191	0x7f	47.0
192	0x80	0.0
193	0x85	0.92156863
194	0x8b	2.027451
195	0x90	2.9490197
196	0x96	4.054902
197	0x9b	4.9764705
198	0xa1	6.082353
199	0xa6	7.0039215
200	0xab	7.9254904
201	0xb1	9.031373
202	0xb6	9.952941
203	0xbc	11.058824
204	0xc1	11.980392
205	0xc7	13.086275
206	0xcc	14.007843
207	0xd1	14.929412
208	0xd7	16.035294
209	0xdc	16.956863
210	0xe2	18.062746
211	0xe7	18.984314
212	0xed	20.090197
213	0xf2	21.011765
214	0xf7	21.933334
215	0xfd	23.039217
216	0x02	23.960785
217	0x08	25.066668
218	0x0d	25.988235
219	0x12	26.909805
220	0x18	28.015686
221	0x1d	28.937256
222	0x23	30.043139
223	0x28	30.964706
224	0x2e	32.070587
225	0x33	32.992157
226	0x38	33.913727
227	0x3e	35.019608
228	0x43	35.941177
229	0x49	37.04706
230	0x4e	37.968628
231	0x54	39.074512
232	0x59	39.99608
233	0x5e	40.91765
234	0x64	42.02353
235	0x69	42.9451
236	0x6f	44.05098
237	0x74	44.97255
238	0x7a	46.078434
239	0x7f	47.0
240	0x80	0.0
241	0x85	0.92156863
242	0x8b	2.027451
243	0x90	2.9490197
244	0x96	4.054902
245	0x9b	4.9764705
246	0xa1	6.082353
247	0xa6	7.0039215
248	0xab	7.9254904
249	0xb1	9.031373
250	0xb6	9.952941
251	0xbc	11.058824
252	0xc1	11.980392
253	0xc7	13.086275
254	0xcc	14.007843
255	0xd1	14.929412
