src/gallium/targets/teflon/tests/models/mobilenetv2/002.tflite (tflite, 1616 bytes, 1 tensors)

MobilenetV2/expanded_conv/project/weights_quant/FakeQuantWithMinMaxVars u1 [16, 1, 1, 32] scale=0.037371755 zero_point=140
00000000: 8a83 8e8c 899c 8a8c 619a 8a8c 8c8c 848b
00000010: 8ca1 8d8c 898f e08a 908b 8ca8 8c96 9e9c
00000020: 4555 888c 7c92 728c 8a8f 5f8c 8c8c 96c1
00000030: 8ca2 8e8c 8572 9579 869d 8c85 8c9e 4f3b
00000040: eb67 838c 8b88 7a8c 7079 968c 8c8c 8569
00000050: 8ccb 7d8c 8c8b 8088 8ba1 8c3f 8c64 848f
00000060: 0173 8f8c 9c82 838c 92b5 8b8c 8c8c ac33
00000070: 8c56 8b8c 908e 9d8c 8899 8c5a 8c8a 90a3
00000080: 8294 898c 8c87 9f8c 8f86 9a8c 8c8c 338f
00000090: 8c8b 8e8c 8a92 9188 918e 8c8b 8c8d 7d87
000000a0: 27ac 808c 8695 918c 9bb5 8c8c 8c8c 84b4
000000b0: 8cc9 788c 8994 8f91 9550 8c71 8c53 92e6
000000c0: a478 8e8c 8a6f 948c c78a 978c 8c8c 8d8f
000000d0: 8c82 908c 8c82 d992 8779 8c6e 8c96 8182
000000e0: 7894 988c 8254 938c 7d93 9a8c 8c8c 89af
000000f0: 8c9f 928c 7f1a 898f cf8d 8c86 8c9e 9476
-0.07474351 -0.3363458 0.07474351 0.0 -0.112115264 0.5979481 -0.07474351 0.0
-1.6069854 0.52320457 -0.07474351 0.0 0.0 0.0 -0.29897404 -0.037371755
0.0 0.78480685 0.037371755 0.0 -0.112115264 0.112115264 3.1392274 -0.07474351
0.14948702 -0.037371755 0.0 1.0464091 0.0 0.37371755 0.6726916 0.5979481
-2.6533947 -2.0554466 -0.14948702 0.0 -0.5979481 0.22423053 -0.9716656 0.0
-0.07474351 0.112115264 -1.681729 0.0 0.0 0.0 0.37371755 1.980703
0.0 0.8221786 0.07474351 0.0 -0.26160228 -0.9716656 0.3363458 -0.71006334
-0.22423053 0.6353198 0.0 -0.26160228 0.0 0.6726916 -2.279677 -3.027112
3.5503168 -1.3827549 -0.3363458 0.0 -0.037371755 -0.14948702 -0.6726916 0.0
-1.0464091 -0.71006334 0.37371755 0.0 0.0 0.0 -0.26160228 -1.3080114
0.0 2.3544207 -0.5605763 0.0 0.0 -0.037371755 -0.44846106 -0.14948702
-0.037371755 0.78480685 0.0 -2.877625 0.0 -1.4948702 -0.29897404 0.112115264
-5.194674 -0.93429387 0.112115264 0.0 0.5979481 -0.37371755 -0.3363458 0.0
0.22423053 1.532242 -0.037371755 0.0 0.0 0.0 1.1958961 -3.326086
0.0 -2.0180748 -0.037371755 0.0 0.14948702 0.07474351 0.6353198 0.0
-0.14948702 0.4858328 0.0 -1.8685877 0.0 -0.07474351 0.14948702 0.85955036
-0.37371755 0.29897404 -0.112115264 0.0 0.0 -0.18685877 0.71006334 0.0
0.112115264 -0.22423053 0.52320457 0.0 0.0 0.0 -3.326086 0.112115264
0.0 -0.037371755 0.07474351 0.0 -0.07474351 0.22423053 0.18685877 -0.14948702
0.18685877 0.07474351 0.0 -0.037371755 0.0 0.037371755 -0.5605763 -0.18685877
-3.774547 1.1958961 -0.44846106 0.0 -0.22423053 0.3363458 0.18685877 0.0
0.5605763 1.532242 0.0 0.0 0.0 0.0 -0.29897404 1.4948702
0.0 2.279677 -0.7474351 0.0 -0.112115264 0.29897404 0.112115264 0.18685877
0.3363458 -2.2423053 0.0 -1.0090374 0.0 -2.13019 0.22423053 3.363458
0.8969221 -0.7474351 0.07474351 0.0 -0.07474351 -1.0837809 0.29897404 0.0
2.2049336 -0.07474351 0.4110893 0.0 0.0 0.0 0.037371755 0.112115264
0.0 -0.37371755 0.14948702 0.0 0.0 -0.37371755 2.877625 0.22423053
-0.18685877 -0.71006334 0.0 -1.1211526 0.0 0.37371755 -0.4110893 -0.37371755
-0.7474351 0.29897404 0.44846106 0.0 -0.37371755 -2.0928183 0.26160228 0.0
-0.5605763 0.26160228 0.52320457 0.0 0.0 0.0 -0.112115264 1.3080114
0.0 0.71006334 0.22423053 0.0 -0.4858328 -4.26038 -0.112115264 0.112115264
2.5039077 0.037371755 0.0 -0.22423053 0.0 0.6726916 0.29897404 -0.8221786
