src/gallium/targets/teflon/tests/models/mobilenetv2/007.tflite (tflite, 2928 bytes, 1 tensors)

MobilenetV2/expanded_conv_2/depthwise/weights_quant/FakeQuantWithMinMaxVars u1 [1, 3, 3, 144] scale=0.16981913 zero_point=52
000000 33 32 3a 34 32 38 38 32 32 33 30 36 2b 35 35 37
       -0.16981913 -0.33963826 1.0189148 0.0 -0.33963826 0.6792765 0.6792765 -0.33963826 -0.33963826 -0.16981913 -0.6792765 0.33963826 -1.5283722 0.16981913 0.16981913 0.5094574
000010 35 32 31 35 32 35 32 33 31 39 34 32 30 33 35 33
       0.16981913 -0.33963826 -0.5094574 0.16981913 -0.33963826 0.16981913 -0.33963826 -0.16981913 -0.5094574 0.84909564 0.0 -0.33963826 -0.6792765 -0.16981913 0.16981913 -0.16981913
000020 2f 36 35 34 35 35 36 32 33 34 33 36 33 36 35 36
       -0.84909564 0.33963826 0.16981913 0.0 0.16981913 0.16981913 0.33963826 -0.33963826 -0.16981913 0.0 -0.16981913 0.33963826 -0.16981913 0.33963826 0.16981913 0.33963826
000030 37 30 33 38 32 34 34 36 34 34 34 34 32 34 33 30
       0.5094574 -0.6792765 -0.16981913 0.6792765 -0.33963826 0.0 0.0 0.33963826 0.0 0.0 0.0 0.0 -0.33963826 0.0 -0.16981913 -0.6792765
000040 33 30 34 34 33 33 38 36 39 33 34 2e 2b 2f 20 33
       -0.16981913 -0.6792765 0.0 0.0 -0.16981913 -0.16981913 0.6792765 0.33963826 0.84909564 -0.16981913 0.0 -1.0189148 -1.5283722 -0.84909564 -3.3963826 -0.16981913
000050 31 33 34 36 29 33 33 35 31 34 31 35 34 29 31 34
       -0.5094574 -0.16981913 0.0 0.33963826 -1.8680104 -0.16981913 -0.16981913 0.16981913 -0.5094574 0.0 -0.5094574 0.16981913 0.0 -1.8680104 -0.5094574 0.0
000060 3b 34 38 33 33 33 35 35 33 35 33 3e 33 33 30 33
       1.1887339 0.0 0.6792765 -0.16981913 -0.16981913 -0.16981913 0.16981913 0.16981913 -0.16981913 0.16981913 -0.16981913 1.6981913 -0.16981913 -0.16981913 -0.6792765 -0.16981913
000070 32 33 32 38 34 3e 33 32 32 32 38 33 37 31 34 35
       -0.33963826 -0.16981913 -0.33963826 0.6792765 0.0 1.6981913 -0.16981913 -0.33963826 -0.33963826 -0.33963826 0.6792765 -0.16981913 0.5094574 -0.5094574 0.0 0.16981913
000080 32 32 42 34 36 3a 34 33 34 34 31 36 34 33 36 36
       -0.33963826 -0.33963826 2.3774679 0.0 0.33963826 1.0189148 0.0 -0.16981913 0.0 0.0 -0.5094574 0.33963826 0.0 -0.16981913 0.33963826 0.33963826
000090 31 31 34 34 31 28 33 3d 36 30 33 37 35 38 3c 2f
       -0.5094574 -0.5094574 0.0 0.0 -0.5094574 -2.0378296 -0.16981913 1.5283722 0.33963826 -0.6792765 -0.16981913 0.5094574 0.16981913 0.6792765 1.358553 -0.84909564
0000a0 34 37 33 34 30 35 30 37 35 38 33 3a 33 36 3b 29
       0.0 0.5094574 -0.16981913 0.0 -0.6792765 0.16981913 -0.6792765 0.5094574 0.16981913 0.6792765 -0.16981913 1.0189148 -0.16981913 0.33963826 1.1887339 -1.8680104
0000b0 3f 34 32 38 32 34 31 2f 19 33 36 2a 3a 31 34 37
       1.8680104 0.0 -0.33963826 0.6792765 -0.33963826 0.0 -0.5094574 -0.84909564 -4.5851164 -0.16981913 0.33963826 -1.6981913 1.0189148 -0.5094574 0.0 0.5094574
0000c0 2d 34 30 2d 33 37 36 33 33 32 33 32 34 33 33 36
       -1.1887339 0.0 -0.6792765 -1.1887339 -0.16981913 0.5094574 0.33963826 -0.16981913 -0.16981913 -0.33963826 -0.16981913 -0.33963826 0.0 -0.16981913 -0.16981913 0.33963826
0000d0 35 2f 36 33 33 39 30 30 34 34 35 43 27 33 3f 34
       0.16981913 -0.84909564 0.33963826 -0.16981913 -0.16981913 0.84909564 -0.6792765 -0.6792765 0.0 0.0 0.16981913 2.547287 -2.2076488 -0.16981913 1.8680104 0.0
0000e0 33 30 2f 36 39 34 36 30 3a 38 33 31 32 22 35 38
       -0.16981913 -0.6792765 -0.84909564 0.33963826 0.84909564 0.0 0.33963826 -0.6792765 1.0189148 0.6792765 -0.16981913 -0.5094574 -0.33963826 -3.0567443 0.16981913 0.6792765
0000f0 34 32 2d 2f 31 2f 32 32 34 34 36 2a 31 34 31 38
       0.0 -0.33963826 -1.1887339 -0.84909564 -0.5094574 -0.84909564 -0.33963826 -0.33963826 0.0 0.0 0.33963826 -1.6981913 -0.5094574 0.0 -0.5094574 0.6792765
