src/gallium/targets/teflon/tests/models/mobilenetv2/025.tflite (tflite, 6048 bytes, 1 tensors)

MobilenetV2/expanded_conv_7/depthwise/weights_quant/FakeQuantWithMinMaxVars u1 [1, 3, 3, 384] scale=0.060927115 zero_point=110
00000000: 6c75 696d 6d72 7374 6772 6f68 6f69 776e
00000010: 6b69 7367 6d70 757c 6f72 6975 686a 6a64
00000020: 6e74 706a 6a73 5c70 6f64 6e6a 6d6a 9077
00000030: 7174 6974 7485 6c75 7968 6a71 6a70 6e6c
00000040: 7178 7271 686b 796b 7c6d 716f 646a 7076
00000050: 7264 6f6a 6d6e 6981 6a6f 7a6b 7273 7296
00000060: 6b72 7766 7570 736e 7073 6d78 6d6c 6f5d
00000070: 6373 7168 6373 6d7c 7169 7473 6b6b 6668
00000080: 706e 7270 7678 6f71 6a75 696c 6874 6d72
00000090: 6d73 7269 6e70 6869 737c 6a72 6b6e 6b71
000000a0: 716f 736a 6a6a 7071 6971 676b 6d6c 6a67
000000b0: 736c 6c73 736e 7870 7968 696b 766b 796e
000000c0: 6c06 7060 715f 7369 6373 6971 5d72 696e
000000d0: 5464 7968 6a5b 7171 a578 6a73 7466 736c
000000e0: 6c6d 6474 676a 6b6b 716c 686e 6a75 636b
000000f0: 6e6e 6a69 7171 7066 6f6a 756a 6d75 7168
-0.12185423 0.4264898 -0.30463558 -0.060927115 -0.060927115 0.24370846 0.30463558 0.36556268
-0.4264898 0.24370846 0.060927115 -0.36556268 0.060927115 -0.30463558 0.548344 0.0
-0.18278134 -0.30463558 0.30463558 -0.4264898 -0.060927115 0.12185423 0.4264898 0.8529796
0.060927115 0.24370846 -0.30463558 0.4264898 -0.36556268 -0.24370846 -0.24370846 -0.60927117
0.0 0.36556268 0.12185423 -0.24370846 -0.24370846 0.30463558 -1.096688 0.12185423
0.060927115 -0.60927117 0.0 -0.24370846 -0.060927115 -0.24370846 2.071522 0.548344
0.18278134 0.36556268 -0.30463558 0.36556268 0.36556268 1.4013237 -0.12185423 0.4264898
0.67019826 -0.36556268 -0.24370846 0.18278134 -0.24370846 0.12185423 0.0 -0.12185423
0.18278134 0.60927117 0.24370846 0.18278134 -0.36556268 -0.18278134 0.67019826 -0.18278134
0.8529796 -0.060927115 0.18278134 0.060927115 -0.60927117 -0.24370846 0.12185423 0.48741692
0.24370846 -0.60927117 0.060927115 -0.24370846 -0.060927115 0.0 -0.30463558 1.1576152
-0.24370846 0.060927115 0.73112535 -0.18278134 0.24370846 0.30463558 0.24370846 2.4370847
-0.18278134 0.24370846 0.548344 -0.48741692 0.4264898 0.12185423 0.30463558 0.0
0.12185423 0.30463558 -0.060927115 0.60927117 -0.060927115 -0.12185423 0.060927115 -1.035761
-0.67019826 0.30463558 0.18278134 -0.36556268 -0.67019826 0.30463558 -0.060927115 0.8529796
0.18278134 -0.30463558 0.36556268 0.30463558 -0.18278134 -0.18278134 -0.48741692 -0.36556268
0.12185423 0.0 0.24370846 0.12185423 0.48741692 0.60927117 0.060927115 0.18278134
-0.24370846 0.4264898 -0.30463558 -0.12185423 -0.36556268 0.36556268 -0.060927115 0.24370846
-0.060927115 0.30463558 0.24370846 -0.30463558 0.0 0.12185423 -0.36556268 -0.30463558
0.30463558 0.8529796 -0.24370846 0.24370846 -0.18278134 0.0 -0.18278134 0.18278134
0.18278134 0.060927115 0.30463558 -0.24370846 -0.24370846 -0.24370846 0.12185423 0.18278134
-0.30463558 0.18278134 -0.4264898 -0.18278134 -0.060927115 -0.12185423 -0.24370846 -0.4264898
0.30463558 -0.12185423 -0.12185423 0.30463558 0.30463558 0.0 0.60927117 0.12185423
0.67019826 -0.36556268 -0.30463558 -0.18278134 0.48741692 -0.18278134 0.67019826 0.0
-0.12185423 -6.33642 0.12185423 -0.8529796 0.18278134 -0.91390675 0.30463558 -0.30463558
-0.67019826 0.30463558 -0.30463558 0.18278134 -1.035761 0.24370846 -0.30463558 0.0
-1.584105 -0.60927117 0.67019826 -0.36556268 -0.24370846 -1.1576152 0.18278134 0.18278134
3.3509912 0.60927117 -0.24370846 0.30463558 0.36556268 -0.48741692 0.30463558 -0.12185423
-0.12185423 -0.060927115 -0.60927117 0.36556268 -0.4264898 -0.24370846 -0.18278134 -0.18278134
0.18278134 -0.12185423 -0.36556268 0.0 -0.24370846 0.4264898 -0.67019826 -0.18278134
0.0 0.0 -0.24370846 -0.30463558 0.18278134 0.18278134 0.12185423 -0.48741692
0.060927115 -0.24370846 0.4264898 -0.24370846 -0.060927115 0.4264898 0.18278134 -0.36556268
