src/gallium/targets/teflon/tests/models/mobilenetv2/036.tflite (tflite, 27152 bytes, 1 tensors)

MobilenetV2/expanded_conv_10/expand/weights_quant/FakeQuantWithMinMaxVars u1 [384, 1, 1, 64] scale=0.0016282502 zero_point=131
000000 80 80 76 85 87 7e 7a 81 89 7f 87 7e 8b 81 93 8b
       -0.0048847506 -0.0048847506 -0.021167252 0.0032565005 0.006513001 -0.008141251 -0.014654252 -0.0032565005 0.009769501 -0.006513001 0.006513001 -0.008141251 0.013026002 -0.0032565005 0.026052004 0.013026002
000010 8f 80 8c 7d 83 87 88 7c 7e 7a 83 82 6c 8a 0d 97
       0.019539002 -0.0048847506 0.014654252 -0.009769501 0.0 0.006513001 0.008141251 -0.011397752 -0.008141251 -0.014654252 0.0 -0.0016282502 -0.037449755 0.011397752 -0.19213353 0.032565005
000020 7b 7d 8d 7c 7e 82 87 7b 79 e5 86 84 7b 85 7e 7c
       -0.013026002 -0.009769501 0.016282503 -0.011397752 -0.008141251 -0.0016282502 0.006513001 -0.013026002 -0.016282503 0.15956852 0.0048847506 0.0016282502 -0.013026002 0.0032565005 -0.008141251 -0.011397752
000030 82 96 79 7e 84 7f 91 7d 7d 8b 8f 99 87 7b 8c 76
       -0.0016282502 0.030936755 -0.016282503 -0.008141251 0.0016282502 -0.006513001 0.022795504 -0.009769501 -0.009769501 0.013026002 0.019539002 0.035821505 0.006513001 -0.013026002 0.014654252 -0.021167252
000040 7a 7d 82 75 9a 8a 82 90 88 84 8a 8c 82 a3 8a 87
       -0.014654252 -0.009769501 -0.0016282502 -0.022795504 0.037449755 0.011397752 -0.0016282502 0.021167252 0.008141251 0.0016282502 0.011397752 0.014654252 -0.0016282502 0.052104007 0.011397752 0.006513001
000050 99 70 83 8c 92 97 84 61 80 80 85 7a 7b 7e 8a 88
       0.035821505 -0.030936755 0.0 0.014654252 0.024423754 0.032565005 0.0016282502 -0.055360507 -0.0048847506 -0.0048847506 0.0032565005 -0.014654252 -0.013026002 -0.008141251 0.011397752 0.008141251
000060 7d 87 85 7d 83 7e 78 7d 80 86 57 91 74 80 89 a0
       -0.009769501 0.006513001 0.0032565005 -0.009769501 0.0 -0.008141251 -0.017910752 -0.009769501 -0.0048847506 0.0048847506 -0.07164301 0.022795504 -0.024423754 -0.0048847506 0.009769501 0.047219258
000070 78 89 93 92 92 7b 85 72 7d 9a 93 7c 96 7b 85 7a
       -0.017910752 0.009769501 0.026052004 0.024423754 0.024423754 -0.013026002 0.0032565005 -0.027680254 -0.009769501 0.037449755 0.026052004 -0.011397752 0.030936755 -0.013026002 0.0032565005 -0.014654252
000080 8d a1 87 86 83 75 7f 81 76 81 ab 7c 81 72 6e 89
       0.016282503 0.048847508 0.006513001 0.0048847506 0.0 -0.022795504 -0.006513001 -0.0032565005 -0.021167252 -0.0032565005 0.06513001 -0.011397752 -0.0032565005 -0.027680254 -0.034193255 0.009769501
000090 75 97 d6 88 98 7b 9d 82 81 82 a0 76 7f 97 81 95
       -0.022795504 0.032565005 0.13514477 0.008141251 0.034193255 -0.013026002 0.042334504 -0.0016282502 -0.0032565005 -0.0016282502 0.047219258 -0.021167252 -0.006513001 0.032565005 -0.0032565005 0.029308503
0000a0 81 7f 58 93 81 92 77 a5 8b 8b 74 82 91 7b 88 7d
       -0.0032565005 -0.006513001 -0.07001476 0.026052004 -0.0032565005 0.024423754 -0.019539002 0.055360507 0.013026002 0.013026002 -0.024423754 -0.0016282502 0.022795504 -0.013026002 0.008141251 -0.009769501
0000b0 8e 80 6c 89 7e 91 81 7a 30 91 8f 7b 93 6f 83 85
       0.017910752 -0.0048847506 -0.037449755 0.009769501 -0.008141251 0.022795504 -0.0032565005 -0.014654252 -0.13514477 0.022795504 0.019539002 -0.013026002 0.026052004 -0.032565005 0.0 0.0032565005
0000c0 88 7f 85 91 7c 7d 82 7d 81 8b 81 84 86 8b 89 87
       0.008141251 -0.006513001 0.0032565005 0.022795504 -0.011397752 -0.009769501 -0.0016282502 -0.009769501 -0.0032565005 0.013026002 -0.0032565005 0.0016282502 0.0048847506 0.013026002 0.009769501 0.006513001
0000d0 85 7f 82 7e 75 80 95 8d 86 84 86 7e 80 7b 7e 83
       0.0032565005 -0.006513001 -0.0016282502 -0.008141251 -0.022795504 -0.0048847506 0.029308503 0.016282503 0.0048847506 0.0016282502 0.0048847506 -0.008141251 -0.0048847506 -0.013026002 -0.008141251 0.0
0000e0 82 87 85 83 79 8d 88 84 88 7c 93 7a 87 7f 7f 7f
       -0.0016282502 0.006513001 0.0032565005 0.0 -0.016282503 0.016282503 0.008141251 0.0016282502 0.008141251 -0.011397752 0.026052004 -0.014654252 0.006513001 -0.006513001 -0.006513001 -0.006513001
0000f0 80 83 88 83 8a 7e 83 78 82 9a 8e 8d 74 87 95 81
       -0.0048847506 0.0 0.008141251 0.0 0.011397752 -0.008141251 0.0 -0.017910752 -0.0016282502 0.037449755 0.017910752 0.016282503 -0.024423754 0.006513001 0.029308503 -0.0032565005
