src/gallium/targets/teflon/tests/models/mobilenetv2/061.tflite (tflite, 415712 bytes, 1 tensors)

MobilenetV2/Conv_1/weights_quant/FakeQuantWithMinMaxVars u1 [1280, 1, 1, 320] scale=0.0051670675 zero_point=125
-0.093007214 0.108508416 0.17051323 -0.11884255 -0.1601791 -0.093007214 -0.08267308 0.015501203
0.04133654 0.0 0.22735097 -0.06717188 0.06717188 -0.14467789 0.072338946 0.02066827
-0.06717188 -0.08784015 0.0 -0.046503607 -0.15501203 0.015501203 -0.031002406 0.09817428
0.35652766 -0.19634856 -0.26352045 -0.031002406 0.036169473 0.14467789 -0.18601443 -0.22735097
-0.25835338 0.04133654 0.046503607 -0.046503607 -0.13434376 -0.010334135 0.11367548 0.08267308
0.08267308 -0.10334135 -0.06717188 -0.09817428 0.27385458 -0.382363 0.12917669 -0.02066827
0.072338946 -0.124009624 -0.06717188 -0.108508416 -0.21701683 0.11884255 0.025835337 -0.010334135
-0.07750601 -0.23251803 -0.0051670675 -0.108508416 0.046503607 -0.09817428 -0.1911815 -0.09817428
0.015501203 0.13434376 0.02066827 0.108508416 -0.08267308 0.015501203 0.18601443 0.24285217
0.036169473 0.11367548 -0.27385458 0.072338946 -0.015501203 0.025835337 0.0051670675 0.13951083
0.108508416 -0.051670674 0.06717188 0.11367548 -0.025835337 0.072338946 -0.051670674 -0.05683774
0.015501203 -0.17051323 -0.13434376 -0.10334135 0.046503607 -0.04133654 -0.072338946 -0.17051323
-0.10334135 -0.036169473 0.0 0.062004812 0.0051670675 0.051670674 0.35652766 0.16534616
-0.11367548 0.093007214 0.07750601 0.02066827 -0.0051670675 0.062004812 -0.31519112 -0.015501203
-0.124009624 0.05683774 -0.051670674 -0.031002406 0.108508416 -0.07750601 -0.010334135 -0.2066827
-0.06717188 0.062004812 0.0051670675 0.046503607 0.0051670675 0.010334135 -0.07750601 -0.24801925
0.31002405 0.07750601 0.25835338 0.07750601 0.07750601 -0.015501203 -0.07750601 0.010334135
-0.02066827 -0.062004812 -0.072338946 -0.1911815 0.051670674 0.062004812 -0.14984496 -0.05683774
0.036169473 -0.2066827 0.031002406 -0.1601791 0.21184976 0.072338946 -0.072338946 -0.11884255
0.06717188 0.06717188 0.21184976 0.010334135 -0.062004812 -0.093007214 0.072338946 0.13434376
-0.093007214 -0.13434376 -0.56321037 0.13434376 -0.28418872 -0.20151563 -0.3978642 -0.1601791
0.07750601 -0.11884255 0.13951083 -0.11367548 0.0051670675 -0.072338946 -0.015501203 0.051670674
-0.08784015 -0.20151563 -0.093007214 0.21701683 -0.27385458 -0.06717188 -0.046503607 0.11367548
0.06717188 0.051670674 -0.124009624 -0.16534616 -0.13434376 -0.025835337 0.04133654 -0.010334135
-0.093007214 0.17051323 -0.11367548 0.11884255 -0.010334135 0.16534616 0.15501203 0.08267308
0.18601443 0.05683774 -0.11884255 0.072338946 -0.093007214 0.16534616 0.06717188 -0.18084736
0.16534616 0.062004812 -0.22735097 0.21701683 -0.16534616 -0.08267308 0.031002406 0.0
-0.072338946 -0.19634856 0.12917669 -0.14984496 -0.1911815 -0.18601443 0.031002406 -0.08267308
0.046503607 -0.07750601 -0.14467789 -0.031002406 0.14984496 0.19634856 0.07750601 0.21184976
0.18084736 -0.15501203 -0.124009624 0.0051670675 -0.17051323 -0.046503607 0.124009624 -0.04133654
-0.04133654 -0.15501203 -0.031002406 0.0051670675 0.010334135 -0.11367548 -0.0051670675 0.25835338
0.02066827 -0.015501203 0.010334135 0.06717188 -0.14984496 0.031002406 -0.108508416 -0.031002406
00000000: 6b92 9e66 5e6b 6d80 857d a970 8a61 8b81
00000010: 706c 7d74 5f80 7790 c257 4a77 8499 5951
00000020: 4b85 8674 637b 938d 8d69 706a b233 9679
00000030: 8b65 7068 5394 827b 6e50 7c68 866a 586a
00000040: 8097 8192 6d80 a1ac 8493 488b 7a82 7e98
00000050: 9273 8a93 788b 7372 805c 6369 8675 6f5c
00000060: 6976 7d89 7e87 c29d 678f 8c81 7c89 407a
00000070: 6588 7377 926e 7b55 7089 7e86 7e7f 6e4d
00000080: b98c af8c 8c7a 6e7f 7971 6f58 8789 6072
00000090: 8455 835e a68b 6f66 8a8a a67f 716b 8b97
000000a0: 6b63 1097 4656 305e 8c66 9867 7e6f 7a87
000000b0: 6c56 6ba7 4870 7493 8a87 655d 6378 857b
000000c0: 6b9e 6794 7b9d 9b8d a188 668b 6b9d 8a5a
000000d0: 9d89 51a7 5d6d 837d 6f57 9660 5859 836d
000000e0: 866e 6177 9aa3 8ca6 a05f 657e 5c74 9575
000000f0: 755f 777e 7f67 7caf 817a 7f8a 6083 6877
